…
I0201 21:51:34.241890 12924 net.cpp:2370] Initializing net from parameters: 
name: "AlexNet"
state {
  phase: TEST
  stage: ""
}
debug_info: true
load_dir: "/home/scratch.yilinz_t19x/git/amod_tests/alexnet/"
layer {
  name: "data"
  type: "Data"
  top: "data"
  top: "label"
  include {
    phase: TEST
  }
  transform_param {
    mirror: false
    crop_size: 227
    mean_file: "/home/scratch.yilinz_t19x/git/dla_amod/data/ilsvrc12/imagenet_mean.binaryproto"
  }
  data_param {
    source: "/home/scratch.yilinz_t19x/git/val_db"
    batch_size: 1
    backend: LMDB
    skip: 0
    interval: 1
  }
}
layer {
  name: "conv1"
  type: "Convolution"
  bottom: "data"
  top: "conv1"
  param {
    lr_mult: 1
    decay_mult: 1
  }
  param {
    lr_mult: 2
    decay_mult: 0
  }
  convolution_param {
    num_output: 96
    kernel_size: 11
    stride: 4
    weight_filler {
      type: "gaussian"
      std: 0.01
    }
    bias_filler {
      type: "constant"
      value: 0
    }
    engine: SPLITC
    split_channel_width: 2
    accmu_bits: 48
    testmode: true
  }
}
layer {
  name: "relu1"
  type: "ReLU"
  bottom: "conv1"
  top: "relu1"
}
layer {
  name: "norm1"
  type: "LRN"
  bottom: "relu1"
  top: "norm1"
  lrn_param {
    local_size: 5
    alpha: 0.0001
    beta: 0.75
  }
}
layer {
  name: "pool1"
  type: "Pooling"
  bottom: "norm1"
  top: "pool1"
  pooling_param {
    pool: MAX
    kernel_size: 3
    stride: 2
  }
}
layer {
  name: "conv2"
  type: "Convolution"
  bottom: "pool1"
  top: "conv2"
  param {
    lr_mult: 1
    decay_mult: 1
  }
  param {
    lr_mult: 2
    decay_mult: 0
  }
  convolution_param {
    num_output: 256
    pad: 2
    kernel_size: 5
    group: 2
    weight_filler {
      type: "gaussian"
      std: 0.01
    }
    bias_filler {
      type: "constant"
      value: 0.1
    }
    engine: SPLITC
    split_channel_width: 16
    accmu_bits: 48
    testmode: true
  }
}
layer {
  name: "relu2"
  type: "ReLU"
  bottom: "conv2"
  top: "conv2"
}
layer {
  name: "norm2"
  type: "LRN"
  bottom: "conv2"
  top: "norm2"
  lrn_param {
    local_size: 5
    alpha: 0.0001
    beta: 0.75
  }
}
layer {
  name: "pool2"
  type: "Pooling"
  bottom: "norm2"
  top: "pool2"
  pooling_param {
    pool: MAX
    kernel_size: 3
    stride: 2
  }
}
layer {
  name: "conv3"
  type: "Convolution"
  bottom: "pool2"
  top: "conv3"
  param {
    lr_mult: 1
    decay_mult: 1
  }
  param {
    lr_mult: 2
    decay_mult: 0
  }
  convolution_param {
    num_output: 384
    pad: 1
    kernel_size: 3
    weight_filler {
      type: "gaussian"
      std: 0.01
    }
    bias_filler {
      type: "constant"
      value: 0
    }
    engine: SPLITC
    split_channel_width: 16
    accmu_bits: 48
    testmode: true
  }
}
layer {
  name: "relu3"
  type: "ReLU"
  bottom: "conv3"
  top: "conv3"
}
layer {
  name: "conv4"
  type: "Convolution"
  bottom: "conv3"
  top: "conv4"
  param {
    lr_mult: 1
    decay_mult: 1
  }
  param {
    lr_mult: 2
    decay_mult: 0
  }
  convolution_param {
    num_output: 384
    pad: 1
    kernel_size: 3
    group: 2
    weight_filler {
      type: "gaussian"
      std: 0.01
    }
    bias_filler {
      type: "constant"
      value: 0.1
    }
  }
}
layer {
  name: "relu4"
  type: "ReLU"
  bottom: "conv4"
  top: "conv4"
}
layer {
  name: "conv5"
  type: "Convolution"
  bottom: "conv4"
  top: "conv5"
  param {
    lr_mult: 1
    decay_mult: 1
  }
  param {
    lr_mult: 2
    decay_mult: 0
  }
  convolution_param {
    num_output: 256
    pad: 1
    kernel_size: 3
    group: 2
    weight_filler {
      type: "gaussian"
      std: 0.01
    }
    bias_filler {
      type: "constant"
      value: 0.1
    }
  }
}
layer {
  name: "relu5"
  type: "ReLU"
  bottom: "conv5"
  top: "conv5"
}
layer {
  name: "pool5"
  type: "Pooling"
  bottom: "conv5"
  top: "pool5"
  pooling_param {
    pool: MAX
    kernel_size: 3
    stride: 2
  }
}
layer {
  name: "fc6"
  type: "InnerProduct"
  bottom: "pool5"
  top: "fc6"
  param {
    lr_mult: 1
    decay_mult: 1
  }
  param {
    lr_mult: 2
    decay_mult: 0
  }
  inner_product_param {
    num_output: 4096
    weight_filler {
      type: "gaussian"
      std: 0.005
    }
    bias_filler {
      type: "constant"
      value: 0.1
    }
  }
}
layer {
  name: "relu6"
  type: "ReLU"
  bottom: "fc6"
  top: "fc6"
}
layer {
  name: "drop6"
  type: "Dropout"
  bottom: "fc6"
  top: "fc6"
  dropout_param {
    dropout_ratio: 0.5
  }
}
layer {
  name: "fc7"
  type: "InnerProduct"
  bottom: "fc6"
  top: "fc7"
  param {
    lr_mult: 1
    decay_mult: 1
  }
  param {
    lr_mult: 2
    decay_mult: 0
  }
  inner_product_param {
    num_output: 4096
    weight_filler {
      type: "gaussian"
      std: 0.005
    }
    bias_filler {
      type: "constant"
      value: 0.1
    }
  }
}
layer {
  name: "relu7"
  type: "ReLU"
  bottom: "fc7"
  top: "fc7"
}
layer {
  name: "drop7"
  type: "Dropout"
  bottom: "fc7"
  top: "fc7"
  dropout_param {
    dropout_ratio: 0.5
  }
}
layer {
  name: "fc8"
  type: "InnerProduct"
  bottom: "fc7"
  top: "fc8"
  param {
    lr_mult: 1
    decay_mult: 1
  }
  param {
    lr_mult: 2
    decay_mult: 0
  }
  inner_product_param {
    num_output: 1000
    weight_filler {
      type: "gaussian"
      std: 0.01
    }
    bias_filler {
      type: "constant"
      value: 0
    }
  }
}
layer {
  name: "accuracy_1"
  type: "Accuracy"
  bottom: "fc8"
  bottom: "label"
  top: "accuracy_1"
  include {
    phase: TEST
  }
  accuracy_param {
    top_k: 1
  }
}
layer {
  name: "accuracy_5"
  type: "Accuracy"
  bottom: "fc8"
  bottom: "label"
  top: "accuracy_5"
  include {
    phase: TEST
  }
  accuracy_param {
    top_k: 5
  }
}
layer {
  name: "loss"
  type: "SoftmaxWithLoss"
  bottom: "fc8"
  bottom: "label"
  top: "loss"
}
I0201 21:51:34.242267 12924 layer_factory.hpp:77] Creating layer data
I0201 21:51:34.276109 12924 db_lmdb.cpp:35] Opened lmdb /home/scratch.yilinz_t19x/git/val_db
I0201 21:51:34.282189 12924 net.cpp:2403] Creating Layer data
I0201 21:51:34.282246 12924 net.cpp:2713] data -> data
I0201 21:51:34.282299 12924 net.cpp:2713] data -> label
I0201 21:51:34.282337 12924 data_transformer.cpp:26] Loading mean file from: /home/scratch.yilinz_t19x/git/dla_amod/data/ilsvrc12/imagenet_mean.binaryproto
I0201 21:51:34.291159 12924 data_layer.cpp:48] output data size: 1,3,227,227
I0201 21:51:34.295660 12924 net.cpp:2441] Setting up data
I0201 21:51:34.295723 12924 net.cpp:2448] Top shape: 1 3 227 227 (154587)
I0201 21:51:34.295740 12924 net.cpp:2448] Top shape: 1 (1)
I0201 21:51:34.295749 12924 net.cpp:2456] Memory required for data: 1236704
I0201 21:51:34.295775 12924 layer_factory.hpp:77] Creating layer label_data_1_split
I0201 21:51:34.295819 12924 net.cpp:2403] Creating Layer label_data_1_split
I0201 21:51:34.295838 12924 net.cpp:2739] label_data_1_split <- label
I0201 21:51:34.295868 12924 net.cpp:2713] label_data_1_split -> label_data_1_split_0
I0201 21:51:34.295898 12924 net.cpp:2713] label_data_1_split -> label_data_1_split_1
I0201 21:51:34.295917 12924 net.cpp:2713] label_data_1_split -> label_data_1_split_2
I0201 21:51:34.295940 12924 net.cpp:2441] Setting up label_data_1_split
I0201 21:51:34.295955 12924 net.cpp:2448] Top shape: 1 (1)
I0201 21:51:34.295966 12924 net.cpp:2448] Top shape: 1 (1)
I0201 21:51:34.295976 12924 net.cpp:2448] Top shape: 1 (1)
I0201 21:51:34.295984 12924 net.cpp:2456] Memory required for data: 1236728
I0201 21:51:34.295994 12924 layer_factory.hpp:77] Creating layer conv1
I0201 21:51:34.296121 12924 net.cpp:2403] Creating Layer conv1
I0201 21:51:34.296138 12924 net.cpp:2739] conv1 <- data
I0201 21:51:34.296154 12924 net.cpp:2713] conv1 -> conv1
I0201 21:51:34.300020 12924 net.cpp:2441] Setting up conv1
I0201 21:51:34.300089 12924 net.cpp:2448] Top shape: 1 96 55 55 (290400)
I0201 21:51:34.300099 12924 net.cpp:2456] Memory required for data: 3559928
I0201 21:51:34.300134 12924 layer_factory.hpp:77] Creating layer relu1
I0201 21:51:34.300232 12924 net.cpp:2403] Creating Layer relu1
I0201 21:51:34.300246 12924 net.cpp:2739] relu1 <- conv1
I0201 21:51:34.300261 12924 net.cpp:2713] relu1 -> relu1
I0201 21:51:34.300281 12924 net.cpp:2441] Setting up relu1
I0201 21:51:34.300292 12924 net.cpp:2448] Top shape: 1 96 55 55 (290400)
I0201 21:51:34.300299 12924 net.cpp:2456] Memory required for data: 5883128
I0201 21:51:34.300307 12924 layer_factory.hpp:77] Creating layer norm1
I0201 21:51:34.300334 12924 net.cpp:2403] Creating Layer norm1
I0201 21:51:34.300346 12924 net.cpp:2739] norm1 <- relu1
I0201 21:51:34.300359 12924 net.cpp:2713] norm1 -> norm1
I0201 21:51:34.300382 12924 net.cpp:2441] Setting up norm1
I0201 21:51:34.300393 12924 net.cpp:2448] Top shape: 1 96 55 55 (290400)
I0201 21:51:34.300400 12924 net.cpp:2456] Memory required for data: 8206328
I0201 21:51:34.300407 12924 layer_factory.hpp:77] Creating layer pool1
I0201 21:51:34.300438 12924 net.cpp:2403] Creating Layer pool1
I0201 21:51:34.300448 12924 net.cpp:2739] pool1 <- norm1
I0201 21:51:34.300459 12924 net.cpp:2713] pool1 -> pool1
I0201 21:51:34.300499 12924 net.cpp:2441] Setting up pool1
I0201 21:51:34.300515 12924 net.cpp:2448] Top shape: 1 96 27 27 (69984)
I0201 21:51:34.300523 12924 net.cpp:2456] Memory required for data: 8766200
I0201 21:51:34.300531 12924 layer_factory.hpp:77] Creating layer conv2
I0201 21:51:34.300633 12924 net.cpp:2403] Creating Layer conv2
I0201 21:51:34.300650 12924 net.cpp:2739] conv2 <- pool1
I0201 21:51:34.300669 12924 net.cpp:2713] conv2 -> conv2
I0201 21:51:34.337801 12924 net.cpp:2441] Setting up conv2
I0201 21:51:34.337860 12924 net.cpp:2448] Top shape: 1 256 27 27 (186624)
I0201 21:51:34.337869 12924 net.cpp:2456] Memory required for data: 10259192
I0201 21:51:34.337896 12924 layer_factory.hpp:77] Creating layer relu2
I0201 21:51:34.337936 12924 net.cpp:2403] Creating Layer relu2
I0201 21:51:34.337949 12924 net.cpp:2739] relu2 <- conv2
I0201 21:51:34.337963 12924 net.cpp:2700] relu2 -> conv2 (in-place)
I0201 21:51:34.337981 12924 net.cpp:2441] Setting up relu2
I0201 21:51:34.337992 12924 net.cpp:2448] Top shape: 1 256 27 27 (186624)
I0201 21:51:34.337999 12924 net.cpp:2456] Memory required for data: 11752184
I0201 21:51:34.338007 12924 layer_factory.hpp:77] Creating layer norm2
I0201 21:51:34.338057 12924 net.cpp:2403] Creating Layer norm2
I0201 21:51:34.338073 12924 net.cpp:2739] norm2 <- conv2
I0201 21:51:34.338091 12924 net.cpp:2713] norm2 -> norm2
I0201 21:51:34.338114 12924 net.cpp:2441] Setting up norm2
I0201 21:51:34.338125 12924 net.cpp:2448] Top shape: 1 256 27 27 (186624)
I0201 21:51:34.338132 12924 net.cpp:2456] Memory required for data: 13245176
I0201 21:51:34.338140 12924 layer_factory.hpp:77] Creating layer pool2
I0201 21:51:34.338182 12924 net.cpp:2403] Creating Layer pool2
I0201 21:51:34.338196 12924 net.cpp:2739] pool2 <- norm2
I0201 21:51:34.338207 12924 net.cpp:2713] pool2 -> pool2
I0201 21:51:34.338227 12924 net.cpp:2441] Setting up pool2
I0201 21:51:34.338238 12924 net.cpp:2448] Top shape: 1 256 13 13 (43264)
I0201 21:51:34.338243 12924 net.cpp:2456] Memory required for data: 13591288
I0201 21:51:34.338249 12924 layer_factory.hpp:77] Creating layer conv3
I0201 21:51:34.338348 12924 net.cpp:2403] Creating Layer conv3
I0201 21:51:34.338363 12924 net.cpp:2739] conv3 <- pool2
I0201 21:51:34.338382 12924 net.cpp:2713] conv3 -> conv3
I0201 21:51:34.432359 12924 net.cpp:2441] Setting up conv3
I0201 21:51:34.432410 12924 net.cpp:2448] Top shape: 1 384 13 13 (64896)
I0201 21:51:34.432421 12924 net.cpp:2456] Memory required for data: 14110456
I0201 21:51:34.432448 12924 layer_factory.hpp:77] Creating layer relu3
I0201 21:51:34.432492 12924 net.cpp:2403] Creating Layer relu3
I0201 21:51:34.432505 12924 net.cpp:2739] relu3 <- conv3
I0201 21:51:34.432523 12924 net.cpp:2700] relu3 -> conv3 (in-place)
I0201 21:51:34.432544 12924 net.cpp:2441] Setting up relu3
I0201 21:51:34.432555 12924 net.cpp:2448] Top shape: 1 384 13 13 (64896)
I0201 21:51:34.432564 12924 net.cpp:2456] Memory required for data: 14629624
I0201 21:51:34.432580 12924 layer_factory.hpp:77] Creating layer conv4
I0201 21:51:34.432735 12924 net.cpp:2403] Creating Layer conv4
I0201 21:51:34.432750 12924 net.cpp:2739] conv4 <- conv3
I0201 21:51:34.432767 12924 net.cpp:2713] conv4 -> conv4
I0201 21:51:34.504706 12924 net.cpp:2441] Setting up conv4
I0201 21:51:34.504760 12924 net.cpp:2448] Top shape: 1 384 13 13 (64896)
I0201 21:51:34.504770 12924 net.cpp:2456] Memory required for data: 15148792
I0201 21:51:34.504791 12924 layer_factory.hpp:77] Creating layer relu4
I0201 21:51:34.504830 12924 net.cpp:2403] Creating Layer relu4
I0201 21:51:34.504844 12924 net.cpp:2739] relu4 <- conv4
I0201 21:51:34.504861 12924 net.cpp:2700] relu4 -> conv4 (in-place)
I0201 21:51:34.504884 12924 net.cpp:2441] Setting up relu4
I0201 21:51:34.504894 12924 net.cpp:2448] Top shape: 1 384 13 13 (64896)
I0201 21:51:34.504902 12924 net.cpp:2456] Memory required for data: 15667960
I0201 21:51:34.504910 12924 layer_factory.hpp:77] Creating layer conv5
I0201 21:51:34.505017 12924 net.cpp:2403] Creating Layer conv5
I0201 21:51:34.505040 12924 net.cpp:2739] conv5 <- conv4
I0201 21:51:34.505064 12924 net.cpp:2713] conv5 -> conv5
I0201 21:51:34.553179 12924 net.cpp:2441] Setting up conv5
I0201 21:51:34.553231 12924 net.cpp:2448] Top shape: 1 256 13 13 (43264)
I0201 21:51:34.553239 12924 net.cpp:2456] Memory required for data: 16014072
I0201 21:51:34.553267 12924 layer_factory.hpp:77] Creating layer relu5
I0201 21:51:34.553306 12924 net.cpp:2403] Creating Layer relu5
I0201 21:51:34.553320 12924 net.cpp:2739] relu5 <- conv5
I0201 21:51:34.553335 12924 net.cpp:2700] relu5 -> conv5 (in-place)
I0201 21:51:34.553355 12924 net.cpp:2441] Setting up relu5
I0201 21:51:34.553372 12924 net.cpp:2448] Top shape: 1 256 13 13 (43264)
I0201 21:51:34.553380 12924 net.cpp:2456] Memory required for data: 16360184
I0201 21:51:34.553388 12924 layer_factory.hpp:77] Creating layer pool5
I0201 21:51:34.553438 12924 net.cpp:2403] Creating Layer pool5
I0201 21:51:34.553452 12924 net.cpp:2739] pool5 <- conv5
I0201 21:51:34.553478 12924 net.cpp:2713] pool5 -> pool5
I0201 21:51:34.553503 12924 net.cpp:2441] Setting up pool5
I0201 21:51:34.553516 12924 net.cpp:2448] Top shape: 1 256 6 6 (9216)
I0201 21:51:34.553524 12924 net.cpp:2456] Memory required for data: 16433912
I0201 21:51:34.553531 12924 layer_factory.hpp:77] Creating layer fc6
I0201 21:51:34.553638 12924 net.cpp:2403] Creating Layer fc6
I0201 21:51:34.553653 12924 net.cpp:2739] fc6 <- pool5
I0201 21:51:34.553666 12924 net.cpp:2713] fc6 -> fc6
I0201 21:51:38.600399 12924 net.cpp:2441] Setting up fc6
I0201 21:51:38.600462 12924 net.cpp:2448] Top shape: 1 4096 (4096)
I0201 21:51:38.600477 12924 net.cpp:2456] Memory required for data: 16466680
I0201 21:51:38.600502 12924 layer_factory.hpp:77] Creating layer relu6
I0201 21:51:38.600548 12924 net.cpp:2403] Creating Layer relu6
I0201 21:51:38.600563 12924 net.cpp:2739] relu6 <- fc6
I0201 21:51:38.600577 12924 net.cpp:2700] relu6 -> fc6 (in-place)
I0201 21:51:38.600600 12924 net.cpp:2441] Setting up relu6
I0201 21:51:38.600612 12924 net.cpp:2448] Top shape: 1 4096 (4096)
I0201 21:51:38.600620 12924 net.cpp:2456] Memory required for data: 16499448
I0201 21:51:38.600626 12924 layer_factory.hpp:77] Creating layer drop6
I0201 21:51:38.600680 12924 net.cpp:2403] Creating Layer drop6
I0201 21:51:38.600693 12924 net.cpp:2739] drop6 <- fc6
I0201 21:51:38.600704 12924 net.cpp:2700] drop6 -> fc6 (in-place)
I0201 21:51:38.600734 12924 net.cpp:2441] Setting up drop6
I0201 21:51:38.600745 12924 net.cpp:2448] Top shape: 1 4096 (4096)
I0201 21:51:38.600752 12924 net.cpp:2456] Memory required for data: 16532216
I0201 21:51:38.600759 12924 layer_factory.hpp:77] Creating layer fc7
I0201 21:51:38.600857 12924 net.cpp:2403] Creating Layer fc7
I0201 21:51:38.600869 12924 net.cpp:2739] fc7 <- fc6
I0201 21:51:38.600885 12924 net.cpp:2713] fc7 -> fc7
I0201 21:51:40.424000 12924 net.cpp:2441] Setting up fc7
I0201 21:51:40.424063 12924 net.cpp:2448] Top shape: 1 4096 (4096)
I0201 21:51:40.424074 12924 net.cpp:2456] Memory required for data: 16564984
I0201 21:51:40.424115 12924 layer_factory.hpp:77] Creating layer relu7
I0201 21:51:40.424245 12924 net.cpp:2403] Creating Layer relu7
I0201 21:51:40.424264 12924 net.cpp:2739] relu7 <- fc7
I0201 21:51:40.424288 12924 net.cpp:2700] relu7 -> fc7 (in-place)
I0201 21:51:40.424314 12924 net.cpp:2441] Setting up relu7
I0201 21:51:40.424329 12924 net.cpp:2448] Top shape: 1 4096 (4096)
I0201 21:51:40.424335 12924 net.cpp:2456] Memory required for data: 16597752
I0201 21:51:40.424343 12924 layer_factory.hpp:77] Creating layer drop7
I0201 21:51:40.424382 12924 net.cpp:2403] Creating Layer drop7
I0201 21:51:40.424397 12924 net.cpp:2739] drop7 <- fc7
I0201 21:51:40.424413 12924 net.cpp:2700] drop7 -> fc7 (in-place)
I0201 21:51:40.424432 12924 net.cpp:2441] Setting up drop7
I0201 21:51:40.424443 12924 net.cpp:2448] Top shape: 1 4096 (4096)
I0201 21:51:40.424450 12924 net.cpp:2456] Memory required for data: 16630520
I0201 21:51:40.424458 12924 layer_factory.hpp:77] Creating layer fc8
I0201 21:51:40.424546 12924 net.cpp:2403] Creating Layer fc8
I0201 21:51:40.424558 12924 net.cpp:2739] fc8 <- fc7
I0201 21:51:40.424573 12924 net.cpp:2713] fc8 -> fc8
I0201 21:51:40.872229 12924 net.cpp:2441] Setting up fc8
I0201 21:51:40.872287 12924 net.cpp:2448] Top shape: 1 1000 (1000)
I0201 21:51:40.872298 12924 net.cpp:2456] Memory required for data: 16638520
I0201 21:51:40.872320 12924 layer_factory.hpp:77] Creating layer fc8_fc8_0_split
I0201 21:51:40.872357 12924 net.cpp:2403] Creating Layer fc8_fc8_0_split
I0201 21:51:40.872371 12924 net.cpp:2739] fc8_fc8_0_split <- fc8
I0201 21:51:40.872391 12924 net.cpp:2713] fc8_fc8_0_split -> fc8_fc8_0_split_0
I0201 21:51:40.872413 12924 net.cpp:2713] fc8_fc8_0_split -> fc8_fc8_0_split_1
I0201 21:51:40.872427 12924 net.cpp:2713] fc8_fc8_0_split -> fc8_fc8_0_split_2
I0201 21:51:40.872444 12924 net.cpp:2441] Setting up fc8_fc8_0_split
I0201 21:51:40.872457 12924 net.cpp:2448] Top shape: 1 1000 (1000)
I0201 21:51:40.872467 12924 net.cpp:2448] Top shape: 1 1000 (1000)
I0201 21:51:40.872478 12924 net.cpp:2448] Top shape: 1 1000 (1000)
I0201 21:51:40.872488 12924 net.cpp:2456] Memory required for data: 16662520
I0201 21:51:40.872496 12924 layer_factory.hpp:77] Creating layer accuracy_1
I0201 21:51:40.872534 12924 net.cpp:2403] Creating Layer accuracy_1
I0201 21:51:40.872546 12924 net.cpp:2739] accuracy_1 <- fc8_fc8_0_split_0
I0201 21:51:40.872558 12924 net.cpp:2739] accuracy_1 <- label_data_1_split_0
I0201 21:51:40.872576 12924 net.cpp:2713] accuracy_1 -> accuracy_1
…
