…
I0511 02:23:47.154273 13189 net.cpp:4092] The NetState phase (1) differed from the phase (0) specified by a rule in layer data
I0511 02:23:47.154563 13189 net.cpp:3834] Initializing net from parameters: 
name: "AlexNet"
state {
  phase: TEST
  stage: ""
}
debug_info: true
layer {
  name: "data"
  type: "Data"
  top: "data"
  top: "label"
  include {
    phase: TEST
  }
  transform_param {
    mirror: false
    crop_size: 227
    mean_file: "/home/scratch.yilinz_t19x/git/dla_amod/data/ilsvrc12/imagenet_mean.binaryproto"
  }
  data_param {
    source: "/home/scratch.yilinz_t19x/git/db/val_db0"
    batch_size: 1
    backend: LMDB
    skip: 0
    interval: 1
  }
}
layer {
  name: "conv1"
  type: "Convolution"
  bottom: "data"
  top: "conv1"
  param {
    lr_mult: 1
    decay_mult: 1
  }
  param {
    lr_mult: 2
    decay_mult: 0
  }
  convolution_param {
    num_output: 96
    kernel_size: 11
    stride: 4
    weight_filler {
      type: "gaussian"
      std: 0.01
    }
    bias_filler {
      type: "constant"
      value: 0
    }
  }
}
layer {
  name: "relu1"
  type: "ReLU"
  bottom: "conv1"
  top: "relu1"
}
layer {
  name: "norm1"
  type: "LRN"
  bottom: "relu1"
  top: "norm1"
  lrn_param {
    local_size: 5
    alpha: 0.0001
    beta: 0.75
  }
}
layer {
  name: "pool1"
  type: "Pooling"
  bottom: "norm1"
  top: "pool1"
  pooling_param {
    pool: MAX
    kernel_size: 3
    stride: 2
  }
}
layer {
  name: "conv2"
  type: "Convolution"
  bottom: "pool1"
  top: "conv2"
  param {
    lr_mult: 1
    decay_mult: 1
  }
  param {
    lr_mult: 2
    decay_mult: 0
  }
  convolution_param {
    num_output: 256
    pad: 2
    kernel_size: 5
    group: 2
    weight_filler {
      type: "gaussian"
      std: 0.01
    }
    bias_filler {
      type: "constant"
      value: 0.1
    }
  }
}
layer {
  name: "relu2"
  type: "ReLU"
  bottom: "conv2"
  top: "conv2"
}
layer {
  name: "norm2"
  type: "LRN"
  bottom: "conv2"
  top: "norm2"
  lrn_param {
    local_size: 5
    alpha: 0.0001
    beta: 0.75
  }
}
layer {
  name: "pool2"
  type: "Pooling"
  bottom: "norm2"
  top: "pool2"
  pooling_param {
    pool: MAX
    kernel_size: 3
    stride: 2
  }
}
layer {
  name: "conv3"
  type: "Convolution"
  bottom: "pool2"
  top: "conv3"
  param {
    lr_mult: 1
    decay_mult: 1
  }
  param {
    lr_mult: 2
    decay_mult: 0
  }
  convolution_param {
    num_output: 384
    pad: 1
    kernel_size: 3
    weight_filler {
      type: "gaussian"
      std: 0.01
    }
    bias_filler {
      type: "constant"
      value: 0
    }
  }
}
layer {
  name: "relu3"
  type: "ReLU"
  bottom: "conv3"
  top: "conv3"
}
layer {
  name: "conv4"
  type: "Convolution"
  bottom: "conv3"
  top: "conv4"
  param {
    lr_mult: 1
    decay_mult: 1
  }
  param {
    lr_mult: 2
    decay_mult: 0
  }
  convolution_param {
    num_output: 384
    pad: 1
    kernel_size: 3
    group: 2
    weight_filler {
      type: "gaussian"
      std: 0.01
    }
    bias_filler {
      type: "constant"
      value: 0.1
    }
  }
}
layer {
  name: "relu4"
  type: "ReLU"
  bottom: "conv4"
  top: "conv4"
}
layer {
  name: "conv5"
  type: "Convolution"
  bottom: "conv4"
  top: "conv5"
  param {
    lr_mult: 1
    decay_mult: 1
  }
  param {
    lr_mult: 2
    decay_mult: 0
  }
  convolution_param {
    num_output: 256
    pad: 1
    kernel_size: 3
    group: 2
    weight_filler {
      type: "gaussian"
      std: 0.01
    }
    bias_filler {
      type: "constant"
      value: 0.1
    }
  }
}
layer {
  name: "relu5"
  type: "ReLU"
  bottom: "conv5"
  top: "conv5"
}
layer {
  name: "pool5"
  type: "Pooling"
  bottom: "conv5"
  top: "pool5"
  pooling_param {
    pool: MAX
    kernel_size: 3
    stride: 2
  }
}
layer {
  name: "fc6"
  type: "InnerProduct"
  bottom: "pool5"
  top: "fc6"
  param {
    lr_mult: 1
    decay_mult: 1
  }
  param {
    lr_mult: 2
    decay_mult: 0
  }
  inner_product_param {
    num_output: 4096
    weight_filler {
      type: "gaussian"
      std: 0.005
    }
    bias_filler {
      type: "constant"
      value: 0.1
    }
  }
}
layer {
  name: "relu6"
  type: "ReLU"
  bottom: "fc6"
  top: "fc6"
}
layer {
  name: "drop6"
  type: "Dropout"
  bottom: "fc6"
  top: "fc6"
  dropout_param {
    dropout_ratio: 0.5
  }
}
layer {
  name: "fc7"
  type: "InnerProduct"
  bottom: "fc6"
  top: "fc7"
  param {
    lr_mult: 1
    decay_mult: 1
  }
  param {
    lr_mult: 2
    decay_mult: 0
  }
  inner_product_param {
    num_output: 4096
    weight_filler {
      type: "gaussian"
      std: 0.005
    }
    bias_filler {
      type: "constant"
      value: 0.1
    }
  }
}
layer {
  name: "relu7"
  type: "ReLU"
  bottom: "fc7"
  top: "fc7"
}
layer {
  name: "drop7"
  type: "Dropout"
  bottom: "fc7"
  top: "fc7"
  dropout_param {
    dropout_ratio: 0.5
  }
}
layer {
  name: "fc8"
  type: "InnerProduct"
  bottom: "fc7"
  top: "fc8"
  param {
    lr_mult: 1
    decay_mult: 1
  }
  param {
    lr_mult: 2
    decay_mult: 0
  }
  inner_product_param {
    num_output: 1000
    weight_filler {
      type: "gaussian"
      std: 0.01
    }
    bias_filler {
      type: "constant"
      value: 0
    }
  }
}
layer {
  name: "accuracy_1"
  type: "Accuracy"
  bottom: "fc8"
  bottom: "label"
  top: "accuracy_1"
  include {
    phase: TEST
  }
  accuracy_param {
    top_k: 1
  }
}
layer {
  name: "accuracy_5"
  type: "Accuracy"
  bottom: "fc8"
  bottom: "label"
  top: "accuracy_5"
  include {
    phase: TEST
  }
  accuracy_param {
    top_k: 5
  }
}
layer {
  name: "loss"
  type: "SoftmaxWithLoss"
  bottom: "fc8"
  bottom: "label"
  top: "loss"
}
I0511 02:23:47.154767 13189 layer_factory.hpp:77] Creating layer data
I0511 02:23:47.157630 13189 db_lmdb.cpp:35] Opened lmdb /home/scratch.yilinz_t19x/git/db/val_db0
I0511 02:23:47.158051 13189 net.cpp:3867] Creating Layer data
I0511 02:23:47.158068 13189 net.cpp:4178] data -> data
I0511 02:23:47.158102 13189 net.cpp:4178] data -> label
I0511 02:23:47.158123 13189 data_transformer.cpp:26] Loading mean file from: /home/scratch.yilinz_t19x/git/dla_amod/data/ilsvrc12/imagenet_mean.binaryproto
I0511 02:23:47.162093 13189 data_layer.cpp:48] output data size: 1,3,227,227
I0511 02:23:47.164893 13189 net.cpp:3905] Setting up data
I0511 02:23:47.164921 13189 net.cpp:3912] Top shape: 1 3 227 227 (154587)
I0511 02:23:47.164928 13189 net.cpp:3912] Top shape: 1 (1)
I0511 02:23:47.164934 13189 net.cpp:3920] Memory required for data: 1236704
I0511 02:23:47.164947 13189 layer_factory.hpp:77] Creating layer label_data_1_split
I0511 02:23:47.164968 13189 net.cpp:3867] Creating Layer label_data_1_split
I0511 02:23:47.164991 13189 net.cpp:4204] label_data_1_split <- label
I0511 02:23:47.165009 13189 net.cpp:4178] label_data_1_split -> label_data_1_split_0
I0511 02:23:47.165024 13189 net.cpp:4178] label_data_1_split -> label_data_1_split_1
I0511 02:23:47.165033 13189 net.cpp:4178] label_data_1_split -> label_data_1_split_2
I0511 02:23:47.165045 13189 net.cpp:3905] Setting up label_data_1_split
I0511 02:23:47.165055 13189 net.cpp:3912] Top shape: 1 (1)
I0511 02:23:47.165066 13189 net.cpp:3912] Top shape: 1 (1)
I0511 02:23:47.165077 13189 net.cpp:3912] Top shape: 1 (1)
I0511 02:23:47.165083 13189 net.cpp:3920] Memory required for data: 1236728
I0511 02:23:47.165089 13189 layer_factory.hpp:77] Creating layer conv1
I0511 02:23:47.165149 13189 net.cpp:3867] Creating Layer conv1
I0511 02:23:47.165158 13189 net.cpp:4204] conv1 <- data
I0511 02:23:47.165169 13189 net.cpp:4178] conv1 -> conv1
I0511 02:23:47.167946 13189 net.cpp:3905] Setting up conv1
I0511 02:23:47.167959 13189 net.cpp:3912] Top shape: 1 96 55 55 (290400)
I0511 02:23:47.167965 13189 net.cpp:3920] Memory required for data: 3559928
I0511 02:23:47.168012 13189 layer_factory.hpp:77] Creating layer relu1
I0511 02:23:47.168035 13189 net.cpp:3867] Creating Layer relu1
I0511 02:23:47.168043 13189 net.cpp:4204] relu1 <- conv1
I0511 02:23:47.168051 13189 net.cpp:4178] relu1 -> relu1
I0511 02:23:47.168062 13189 net.cpp:3905] Setting up relu1
I0511 02:23:47.168071 13189 net.cpp:3912] Top shape: 1 96 55 55 (290400)
I0511 02:23:47.168081 13189 net.cpp:3920] Memory required for data: 5883128
I0511 02:23:47.168114 13189 layer_factory.hpp:77] Creating layer norm1
I0511 02:23:47.168133 13189 net.cpp:3867] Creating Layer norm1
I0511 02:23:47.168140 13189 net.cpp:4204] norm1 <- relu1
I0511 02:23:47.168148 13189 net.cpp:4178] norm1 -> norm1
I0511 02:23:47.168164 13189 net.cpp:3905] Setting up norm1
I0511 02:23:47.168171 13189 net.cpp:3912] Top shape: 1 96 55 55 (290400)
I0511 02:23:47.168176 13189 net.cpp:3920] Memory required for data: 8206328
I0511 02:23:47.168182 13189 layer_factory.hpp:77] Creating layer pool1
I0511 02:23:47.168200 13189 net.cpp:3867] Creating Layer pool1
I0511 02:23:47.168206 13189 net.cpp:4204] pool1 <- norm1
I0511 02:23:47.168213 13189 net.cpp:4178] pool1 -> pool1
I0511 02:23:47.168236 13189 net.cpp:3905] Setting up pool1
I0511 02:23:47.168246 13189 net.cpp:3912] Top shape: 1 96 27 27 (69984)
I0511 02:23:47.168251 13189 net.cpp:3920] Memory required for data: 8766200
I0511 02:23:47.168256 13189 layer_factory.hpp:77] Creating layer conv2
I0511 02:23:47.168306 13189 net.cpp:3867] Creating Layer conv2
I0511 02:23:47.168314 13189 net.cpp:4204] conv2 <- pool1
I0511 02:23:47.168325 13189 net.cpp:4178] conv2 -> conv2
I0511 02:23:47.197199 13189 net.cpp:3905] Setting up conv2
I0511 02:23:47.197235 13189 net.cpp:3912] Top shape: 1 256 27 27 (186624)
I0511 02:23:47.197242 13189 net.cpp:3920] Memory required for data: 10259192
I0511 02:23:47.197262 13189 layer_factory.hpp:77] Creating layer relu2
I0511 02:23:47.197290 13189 net.cpp:3867] Creating Layer relu2
I0511 02:23:47.197299 13189 net.cpp:4204] relu2 <- conv2
I0511 02:23:47.197311 13189 net.cpp:4165] relu2 -> conv2 (in-place)
I0511 02:23:47.197329 13189 net.cpp:3905] Setting up relu2
I0511 02:23:47.197337 13189 net.cpp:3912] Top shape: 1 256 27 27 (186624)
I0511 02:23:47.197342 13189 net.cpp:3920] Memory required for data: 11752184
I0511 02:23:47.197348 13189 layer_factory.hpp:77] Creating layer norm2
I0511 02:23:47.197372 13189 net.cpp:3867] Creating Layer norm2
I0511 02:23:47.197378 13189 net.cpp:4204] norm2 <- conv2
I0511 02:23:47.197389 13189 net.cpp:4178] norm2 -> norm2
I0511 02:23:47.197403 13189 net.cpp:3905] Setting up norm2
I0511 02:23:47.197412 13189 net.cpp:3912] Top shape: 1 256 27 27 (186624)
I0511 02:23:47.197417 13189 net.cpp:3920] Memory required for data: 13245176
I0511 02:23:47.197422 13189 layer_factory.hpp:77] Creating layer pool2
I0511 02:23:47.197450 13189 net.cpp:3867] Creating Layer pool2
I0511 02:23:47.197458 13189 net.cpp:4204] pool2 <- norm2
I0511 02:23:47.197464 13189 net.cpp:4178] pool2 -> pool2
I0511 02:23:47.197479 13189 net.cpp:3905] Setting up pool2
I0511 02:23:47.197487 13189 net.cpp:3912] Top shape: 1 256 13 13 (43264)
I0511 02:23:47.197492 13189 net.cpp:3920] Memory required for data: 13591288
I0511 02:23:47.197499 13189 layer_factory.hpp:77] Creating layer conv3
I0511 02:23:47.197585 13189 net.cpp:3867] Creating Layer conv3
I0511 02:23:47.197595 13189 net.cpp:4204] conv3 <- pool2
I0511 02:23:47.197607 13189 net.cpp:4178] conv3 -> conv3
I0511 02:23:47.273386 13189 net.cpp:3905] Setting up conv3
I0511 02:23:47.273427 13189 net.cpp:3912] Top shape: 1 384 13 13 (64896)
I0511 02:23:47.273434 13189 net.cpp:3920] Memory required for data: 14110456
I0511 02:23:47.273454 13189 layer_factory.hpp:77] Creating layer relu3
I0511 02:23:47.273490 13189 net.cpp:3867] Creating Layer relu3
I0511 02:23:47.273499 13189 net.cpp:4204] relu3 <- conv3
I0511 02:23:47.273514 13189 net.cpp:4165] relu3 -> conv3 (in-place)
I0511 02:23:47.273528 13189 net.cpp:3905] Setting up relu3
I0511 02:23:47.273537 13189 net.cpp:3912] Top shape: 1 384 13 13 (64896)
I0511 02:23:47.273542 13189 net.cpp:3920] Memory required for data: 14629624
I0511 02:23:47.273548 13189 layer_factory.hpp:77] Creating layer conv4
I0511 02:23:47.273617 13189 net.cpp:3867] Creating Layer conv4
I0511 02:23:47.273623 13189 net.cpp:4204] conv4 <- conv3
I0511 02:23:47.273635 13189 net.cpp:4178] conv4 -> conv4
I0511 02:23:47.329787 13189 net.cpp:3905] Setting up conv4
I0511 02:23:47.329829 13189 net.cpp:3912] Top shape: 1 384 13 13 (64896)
I0511 02:23:47.329874 13189 net.cpp:3920] Memory required for data: 15148792
I0511 02:23:47.329890 13189 layer_factory.hpp:77] Creating layer relu4
I0511 02:23:47.329932 13189 net.cpp:3867] Creating Layer relu4
I0511 02:23:47.329941 13189 net.cpp:4204] relu4 <- conv4
I0511 02:23:47.329953 13189 net.cpp:4165] relu4 -> conv4 (in-place)
I0511 02:23:47.329969 13189 net.cpp:3905] Setting up relu4
I0511 02:23:47.329982 13189 net.cpp:3912] Top shape: 1 384 13 13 (64896)
I0511 02:23:47.329988 13189 net.cpp:3920] Memory required for data: 15667960
I0511 02:23:47.329993 13189 layer_factory.hpp:77] Creating layer conv5
I0511 02:23:47.330066 13189 net.cpp:3867] Creating Layer conv5
I0511 02:23:47.330073 13189 net.cpp:4204] conv5 <- conv4
I0511 02:23:47.330085 13189 net.cpp:4178] conv5 -> conv5
I0511 02:23:47.367401 13189 net.cpp:3905] Setting up conv5
I0511 02:23:47.367440 13189 net.cpp:3912] Top shape: 1 256 13 13 (43264)
I0511 02:23:47.367447 13189 net.cpp:3920] Memory required for data: 16014072
I0511 02:23:47.367468 13189 layer_factory.hpp:77] Creating layer relu5
I0511 02:23:47.367502 13189 net.cpp:3867] Creating Layer relu5
I0511 02:23:47.367511 13189 net.cpp:4204] relu5 <- conv5
I0511 02:23:47.367523 13189 net.cpp:4165] relu5 -> conv5 (in-place)
I0511 02:23:47.367538 13189 net.cpp:3905] Setting up relu5
I0511 02:23:47.367547 13189 net.cpp:3912] Top shape: 1 256 13 13 (43264)
I0511 02:23:47.367552 13189 net.cpp:3920] Memory required for data: 16360184
I0511 02:23:47.367558 13189 layer_factory.hpp:77] Creating layer pool5
I0511 02:23:47.367596 13189 net.cpp:3867] Creating Layer pool5
I0511 02:23:47.367604 13189 net.cpp:4204] pool5 <- conv5
I0511 02:23:47.367614 13189 net.cpp:4178] pool5 -> pool5
I0511 02:23:47.367631 13189 net.cpp:3905] Setting up pool5
I0511 02:23:47.367640 13189 net.cpp:3912] Top shape: 1 256 6 6 (9216)
I0511 02:23:47.367645 13189 net.cpp:3920] Memory required for data: 16433912
I0511 02:23:47.367650 13189 layer_factory.hpp:77] Creating layer fc6
I0511 02:23:47.367740 13189 net.cpp:3867] Creating Layer fc6
I0511 02:23:47.367749 13189 net.cpp:4204] fc6 <- pool5
I0511 02:23:47.367759 13189 net.cpp:4178] fc6 -> fc6
I0511 02:23:50.744729 13189 net.cpp:3905] Setting up fc6
I0511 02:23:50.744774 13189 net.cpp:3912] Top shape: 1 4096 (4096)
I0511 02:23:50.744781 13189 net.cpp:3920] Memory required for data: 16466680
I0511 02:23:50.744797 13189 layer_factory.hpp:77] Creating layer relu6
I0511 02:23:50.744834 13189 net.cpp:3867] Creating Layer relu6
I0511 02:23:50.744844 13189 net.cpp:4204] relu6 <- fc6
I0511 02:23:50.744858 13189 net.cpp:4165] relu6 -> fc6 (in-place)
I0511 02:23:50.744875 13189 net.cpp:3905] Setting up relu6
I0511 02:23:50.744884 13189 net.cpp:3912] Top shape: 1 4096 (4096)
I0511 02:23:50.744889 13189 net.cpp:3920] Memory required for data: 16499448
I0511 02:23:50.744894 13189 layer_factory.hpp:77] Creating layer drop6
I0511 02:23:50.744922 13189 net.cpp:3867] Creating Layer drop6
I0511 02:23:50.744928 13189 net.cpp:4204] drop6 <- fc6
I0511 02:23:50.744938 13189 net.cpp:4165] drop6 -> fc6 (in-place)
I0511 02:23:50.744957 13189 net.cpp:3905] Setting up drop6
I0511 02:23:50.744966 13189 net.cpp:3912] Top shape: 1 4096 (4096)
I0511 02:23:50.744971 13189 net.cpp:3920] Memory required for data: 16532216
I0511 02:23:50.744982 13189 layer_factory.hpp:77] Creating layer fc7
I0511 02:23:50.745060 13189 net.cpp:3867] Creating Layer fc7
I0511 02:23:50.745069 13189 net.cpp:4204] fc7 <- fc6
I0511 02:23:50.745079 13189 net.cpp:4178] fc7 -> fc7
I0511 02:23:52.441982 13189 net.cpp:3905] Setting up fc7
I0511 02:23:52.442032 13189 net.cpp:3912] Top shape: 1 4096 (4096)
I0511 02:23:52.442044 13189 net.cpp:3920] Memory required for data: 16564984
I0511 02:23:52.442070 13189 layer_factory.hpp:77] Creating layer relu7
I0511 02:23:52.442114 13189 net.cpp:3867] Creating Layer relu7
I0511 02:23:52.442129 13189 net.cpp:4204] relu7 <- fc7
I0511 02:23:52.442154 13189 net.cpp:4165] relu7 -> fc7 (in-place)
I0511 02:23:52.442178 13189 net.cpp:3905] Setting up relu7
I0511 02:23:52.442191 13189 net.cpp:3912] Top shape: 1 4096 (4096)
I0511 02:23:52.442262 13189 net.cpp:3920] Memory required for data: 16597752
I0511 02:23:52.442276 13189 layer_factory.hpp:77] Creating layer drop7
I0511 02:23:52.442312 13189 net.cpp:3867] Creating Layer drop7
I0511 02:23:52.442322 13189 net.cpp:4204] drop7 <- fc7
I0511 02:23:52.442339 13189 net.cpp:4165] drop7 -> fc7 (in-place)
I0511 02:23:52.442359 13189 net.cpp:3905] Setting up drop7
I0511 02:23:52.442375 13189 net.cpp:3912] Top shape: 1 4096 (4096)
I0511 02:23:52.442384 13189 net.cpp:3920] Memory required for data: 16630520
I0511 02:23:52.442392 13189 layer_factory.hpp:77] Creating layer fc8
I0511 02:23:52.442520 13189 net.cpp:3867] Creating Layer fc8
I0511 02:23:52.442533 13189 net.cpp:4204] fc8 <- fc7
I0511 02:23:52.442548 13189 net.cpp:4178] fc8 -> fc8
I0511 02:23:52.850173 13189 net.cpp:3905] Setting up fc8
I0511 02:23:52.850225 13189 net.cpp:3912] Top shape: 1 1000 (1000)
I0511 02:23:52.850236 13189 net.cpp:3920] Memory required for data: 16638520
I0511 02:23:52.850261 13189 layer_factory.hpp:77] Creating layer fc8_fc8_0_split
I0511 02:23:52.850317 13189 net.cpp:3867] Creating Layer fc8_fc8_0_split
I0511 02:23:52.850333 13189 net.cpp:4204] fc8_fc8_0_split <- fc8
I0511 02:23:52.850373 13189 net.cpp:4178] fc8_fc8_0_split -> fc8_fc8_0_split_0
I0511 02:23:52.850400 13189 net.cpp:4178] fc8_fc8_0_split -> fc8_fc8_0_split_1
I0511 02:23:52.850419 13189 net.cpp:4178] fc8_fc8_0_split -> fc8_fc8_0_split_2
I0511 02:23:52.850436 13189 net.cpp:3905] Setting up fc8_fc8_0_split
I0511 02:23:52.850456 13189 net.cpp:3912] Top shape: 1 1000 (1000)
I0511 02:23:52.850471 13189 net.cpp:3912] Top shape: 1 1000 (1000)
I0511 02:23:52.850484 13189 net.cpp:3912] Top shape: 1 1000 (1000)
I0511 02:23:52.850494 13189 net.cpp:3920] Memory required for data: 16662520
I0511 02:23:52.850504 13189 layer_factory.hpp:77] Creating layer accuracy_1
I0511 02:23:52.850538 13189 net.cpp:3867] Creating Layer accuracy_1
I0511 02:23:52.850551 13189 net.cpp:4204] accuracy_1 <- fc8_fc8_0_split_0
I0511 02:23:52.850563 13189 net.cpp:4204] accuracy_1 <- label_data_1_split_0
I0511 02:23:52.850576 13189 net.cpp:4178] accuracy_1 -> accuracy_1
…
