…
name: "AlexNet"
state {
  phase: TEST
}
debug_info: true
roi_accuracy: NONE
layer {
  name: "data"
  type: "Data"
  top: "data"
  top: "label"
  include {
    phase: TEST
  }
  transform_param {
    mirror: false
    crop_size: 227
    mean_file: "/home/scratch.yilinz_t19x_2/t19x/caffe-master-amodel/data/ilsvrc12/imagenet_mean.binaryproto"
    shifter: 0
    bits: 8
    type: INT
  }
  data_param {
    source: "/home/scratch.yilinz_t19x_2/t19x/caffe-master-amodel/../git/db/val_db0"
    batch_size: 25
    backend: LMDB
    skip: 0
    interval: 2
  }
}
layer {
  name: "data_convert0"
  type: "Convertor"
  bottom: "data"
  top: "data"
  convert_param {
    from: DBL
    to: INT
    to_coef {
      scale: 16858
      shifter: 15
      comp_scale: 1
      comp_shifter: 0
      bits: 8
      offset: 0
    }
    allow_saturate: true
    method: SIMPLE_RN
    dr_ratio: 0.3
  }
  enable_dump_top: false
}
layer {
  name: "conv1"
  type: "Convolution"
  bottom: "data"
  top: "conv1"
  param {
    lr_mult: 1
    decay_mult: 1
  }
  param {
    lr_mult: 2
    decay_mult: 0
  }
  convolution_param {
    num_output: 96
    kernel_size: 11
    stride: 4
    weight_filler {
      type: "gaussian"
      std: 0.01
    }
    bias_filler {
      type: "constant"
      value: 0
    }
    engine: SPLITC
    output_truncat {
      from: DBL
      to: INT
      to_coef {
        scale: 1
        shifter: 0
        comp_scale: 1
        comp_shifter: 0
        bits: 32
        offset: 0
      }
      allow_saturate: true
      method: SIMPLE_RN
      dr_ratio: 0
    }
    weight_convert {
      from: DBL
      to: INT
      to_coef {
        scale: 286.9697618664577
        shifter: 0
        comp_scale: 1
        comp_shifter: 0
        bits: 8
        offset: 0
      }
      allow_saturate: false
      method: STD_RN
      dr_ratio: 0.98
    }
    bias_convert {
      from: DBL
      to: INT
      to_coef {
        scale: 147.6359938215559
        shifter: 0
        comp_scale: 1
        comp_shifter: 0
        bits: 16
        offset: 0
      }
      allow_saturate: false
      method: STD_RN
      dr_ratio: 0.4
    }
    input_mean: 0
  }
}
layer {
  name: "relu1"
  type: "ReLU"
  bottom: "conv1"
  top: "relu1"
}
layer {
  name: "relu1_convert0"
  type: "Convertor"
  bottom: "relu1"
  top: "relu1"
  convert_param {
    from: DBL
    to: INT
    to_coef {
      scale: 18357
      shifter: 25
      comp_scale: 1
      comp_shifter: 0
      bits: 8
      offset: 0
    }
    allow_saturate: true
    method: SIMPLE_RN
    dr_ratio: 0.3
  }
  enable_dump_top: false
}
layer {
  name: "norm1_convert_in0"
  type: "Convertor"
  bottom: "relu1"
  top: "relu1"
  convert_param {
    from: DBL
    to: INT
    to_coef {
      scale: 25307
      shifter: 13
      comp_scale: 1
      comp_shifter: 0
      bits: 9
      offset: -0
    }
    allow_saturate: true
    method: SIMPLE_RN
    dr_ratio: 0.1
  }
  enable_dump_top: false
}
layer {
  name: "norm1"
  type: "NVLRN"
  bottom: "relu1"
  top: "norm1"
  nv_lrn_param {
    local_size: 5
    alpha: 0.0001
    beta: 0.75
    norm_region: ACROSS_CHANNELS
    k: 1
    lut_param {
      density_start: 7094.2377531130414
      density_win_size: 17
      raw_tbl_entry: 65
      density_tbl_entry: 257
      sym: NO_SYM
      lut_convert {
        from: DBL
        to: INT
        to_coef {
          scale: 32767
          shifter: 0
          comp_scale: 1
          comp_shifter: 0
          bits: 16
          offset: 0
        }
        allow_saturate: false
        method: STD_RN
        dr_ratio: 0
      }
      raw_step_method: EXP_STEP
      raw_min: 0
      raw_max: 4294967296
      priority: LO_TBL
      shifter: -4
      interp_bits: 16
      disable_density: false
      exp_raw_shifter: -32
      overflow_priority: LE_TBL
      underflow_priority: LE_TBL
      density_overflow_slope: -2147483648
      density_overflow_shifter: 72
      density_underflow_slope: -2147483648
      density_underflow_shifter: 69
      raw_overflow_slope: 0
      raw_overflow_shifter: 0
      raw_underflow_slope: 0
      raw_underflow_shifter: 0
      pipe: INT
    }
  }
}
layer {
  name: "norm1_convert0"
  type: "Convertor"
  bottom: "norm1"
  top: "norm1"
  convert_param {
    from: DBL
    to: INT
    to_coef {
      scale: 16588
      shifter: 27
      comp_scale: 1
      comp_shifter: 0
      bits: 8
      offset: 0
    }
    allow_saturate: true
    method: SIMPLE_RN
    dr_ratio: 0.3
  }
  enable_dump_top: false
}
layer {
  name: "pool1"
  type: "Pooling"
  bottom: "norm1"
  top: "pool1"
  pooling_param {
    pool: MAX
    kernel_size: 3
    stride: 2
  }
  enable_dump_top: false
}
layer {
  name: "conv2"
  type: "Convolution"
  bottom: "pool1"
  top: "conv2"
  param {
    lr_mult: 1
    decay_mult: 1
  }
  param {
    lr_mult: 2
    decay_mult: 0
  }
  convolution_param {
    num_output: 256
    pad: 2
    kernel_size: 5
    group: 2
    weight_filler {
      type: "gaussian"
      std: 0.01
    }
    bias_filler {
      type: "constant"
      value: 0.1
    }
    engine: SPLITC
    output_truncat {
      from: DBL
      to: INT
      to_coef {
        scale: 1
        shifter: 0
        comp_scale: 1
        comp_shifter: 0
        bits: 32
        offset: 0
      }
      allow_saturate: true
      method: SIMPLE_RN
      dr_ratio: 0
    }
    weight_convert {
      from: DBL
      to: INT
      to_coef {
        scale: 262.84411998001553
        shifter: 0
        comp_scale: 1
        comp_shifter: 0
        bits: 8
        offset: 0
      }
      allow_saturate: false
      method: STD_RN
      dr_ratio: 0.8
    }
    bias_convert {
      from: DBL
      to: INT
      to_coef {
        scale: 265.59132190752149
        shifter: 0
        comp_scale: 1
        comp_shifter: 0
        bits: 16
        offset: 0
      }
      allow_saturate: false
      method: STD_RN
      dr_ratio: 0.4
    }
    input_mean: 0
  }
}
layer {
  name: "relu2"
  type: "ReLU"
  bottom: "conv2"
  top: "conv2"
}
layer {
  name: "relu2_convert0"
  type: "Convertor"
  bottom: "conv2"
  top: "conv2"
  convert_param {
    from: DBL
    to: INT
    to_coef {
      scale: 17318
      shifter: 24
      comp_scale: 1
      comp_shifter: 0
      bits: 8
      offset: 0
    }
    allow_saturate: true
    method: SIMPLE_RN
    dr_ratio: 0.3
  }
  enable_dump_top: false
}
layer {
  name: "norm2_convert_in0"
  type: "Convertor"
  bottom: "conv2"
  top: "conv2"
  convert_param {
    from: DBL
    to: INT
    to_coef {
      scale: 29823
      shifter: 13
      comp_scale: 1
      comp_shifter: 0
      bits: 9
      offset: -0
    }
    allow_saturate: true
    method: SIMPLE_RN
    dr_ratio: 0.1
  }
  enable_dump_top: false
}
layer {
  name: "norm2"
  type: "NVLRN"
  bottom: "conv2"
  top: "norm2"
  nv_lrn_param {
    local_size: 5
    alpha: 0.0001
    beta: 0.75
    norm_region: ACROSS_CHANNELS
    k: 1
    lut_param {
      density_start: 499.17495655301633
      density_win_size: 15
      raw_tbl_entry: 65
      density_tbl_entry: 257
      sym: NO_SYM
      lut_convert {
        from: DBL
        to: INT
        to_coef {
          scale: 32767
          shifter: 0
          comp_scale: 1
          comp_shifter: 0
          bits: 16
          offset: 0
        }
        allow_saturate: false
        method: STD_RN
        dr_ratio: 0
      }
      raw_step_method: EXP_STEP
      raw_min: 0
      raw_max: 4294967296
      priority: LO_TBL
      shifter: 0
      interp_bits: 16
      disable_density: false
      exp_raw_shifter: -32
      overflow_priority: LE_TBL
      underflow_priority: LE_TBL
      density_overflow_slope: -2147483648
      density_overflow_shifter: 67
      density_underflow_slope: -2147483648
      density_underflow_shifter: 69
      raw_overflow_slope: 0
      raw_overflow_shifter: 0
      raw_underflow_slope: 0
      raw_underflow_shifter: 0
      pipe: INT
    }
  }
}
layer {
  name: "norm2_convert0"
  type: "Convertor"
  bottom: "norm2"
  top: "norm2"
  convert_param {
    from: DBL
    to: INT
    to_coef {
      scale: 20273
      shifter: 29
      comp_scale: 1
      comp_shifter: 0
      bits: 8
      offset: 0
    }
    allow_saturate: true
    method: SIMPLE_RN
    dr_ratio: 0.3
  }
  enable_dump_top: false
}
layer {
  name: "pool2"
  type: "Pooling"
  bottom: "norm2"
  top: "pool2"
  pooling_param {
    pool: MAX
    kernel_size: 3
    stride: 2
  }
  enable_dump_top: false
}
layer {
  name: "conv3"
  type: "Convolution"
  bottom: "pool2"
  top: "conv3"
  param {
    lr_mult: 1
    decay_mult: 1
  }
  param {
    lr_mult: 2
    decay_mult: 0
  }
  convolution_param {
    num_output: 384
    pad: 1
    kernel_size: 3
    weight_filler {
      type: "gaussian"
      std: 0.01
    }
    bias_filler {
      type: "constant"
      value: 0
    }
    engine: WINOGRAD
    output_truncat {
      from: DBL
      to: INT
      to_coef {
…
    pra_feature_truncat {
      from: DBL
      to: INT
      to_coef {
        scale: 1
        shifter: 2
        comp_scale: 1
        comp_shifter: 0
        bits: 8
        offset: 0
      }
      allow_saturate: true
      method: SIMPLE_RN
      dr_ratio: 0
    }
    pra_weight_convert {
      from: DBL
      to: INT
      to_coef {
        scale: 336.01702915348363
        shifter: 0
        comp_scale: 1
        comp_shifter: 0
        bits: 8
        offset: 0
      }
      allow_saturate: false
      method: STD_RN
      dr_ratio: 0.8
    }
    input_mean: 0
  }
}
layer {
  name: "relu5"
  type: "ReLU"
  bottom: "conv5"
  top: "conv5"
}
layer {
  name: "relu5_convert0"
  type: "Convertor"
  bottom: "conv5"
  top: "conv5"
  convert_param {
    from: DBL
    to: INT
    to_coef {
      scale: 28910
      shifter: 21
      comp_scale: 1
      comp_shifter: 0
      bits: 8
      offset: 0
    }
    allow_saturate: true
    method: SIMPLE_RN
    dr_ratio: 0.3
  }
  enable_dump_top: false
}
layer {
  name: "pool5"
  type: "Pooling"
  bottom: "conv5"
  top: "pool5"
  pooling_param {
    pool: MAX
    kernel_size: 3
    stride: 2
  }
  enable_dump_top: false
}
layer {
  name: "fc6"
  type: "InnerProduct"
  bottom: "pool5"
  top: "fc6"
  param {
    lr_mult: 1
    decay_mult: 1
  }
  param {
    lr_mult: 2
    decay_mult: 0
  }
  inner_product_param {
    num_output: 4096
    weight_filler {
      type: "gaussian"
      std: 0.005
    }
    bias_filler {
      type: "constant"
      value: 0.1
    }
    weight_convert {
      from: DBL
      to: INT
      to_coef {
        scale: 2987.0528528681662
        shifter: 0
        comp_scale: 1
        comp_shifter: 0
        bits: 8
        offset: 0
      }
      allow_saturate: false
      method: STD_RN
      dr_ratio: 0.98
    }
    bias_convert {
      from: DBL
      to: INT
      to_coef {
        scale: 1990.069246442185
        shifter: 0
        comp_scale: 1
        comp_shifter: 0
        bits: 16
        offset: 0
      }
      allow_saturate: false
      method: STD_RN
      dr_ratio: 0.4
    }
    output_truncat {
      from: DBL
      to: INT
      to_coef {
        scale: 1
        shifter: 0
        comp_scale: 1
        comp_shifter: 0
        bits: 32
        offset: 0
      }
      allow_saturate: true
      method: SIMPLE_RN
      dr_ratio: 0
    }
  }
}
layer {
  name: "relu6"
  type: "ReLU"
  bottom: "fc6"
  top: "fc6"
}
layer {
  name: "relu6_convert0"
  type: "Convertor"
  bottom: "fc6"
  top: "fc6"
  convert_param {
    from: DBL
    to: INT
    to_coef {
      scale: 19412
      shifter: 24
      comp_scale: 1
      comp_shifter: 0
      bits: 8
      offset: 0
    }
    allow_saturate: true
    method: SIMPLE_RN
    dr_ratio: 0.3
  }
  enable_dump_top: false
}
layer {
  name: "drop6"
  type: "Dropout"
  bottom: "fc6"
  top: "fc6"
  dropout_param {
    dropout_ratio: 0.5
  }
}
layer {
  name: "fc7"
  type: "InnerProduct"
  bottom: "fc6"
  top: "fc7"
  param {
    lr_mult: 1
    decay_mult: 1
  }
  param {
    lr_mult: 2
    decay_mult: 0
  }
  inner_product_param {
    num_output: 4096
    weight_filler {
      type: "gaussian"
      std: 0.005
    }
    bias_filler {
      type: "constant"
      value: 0.1
    }
    weight_convert {
      from: DBL
      to: INT
      to_coef {
        scale: 1754.3125370763823
        shifter: 0
        comp_scale: 1
        comp_shifter: 0
        bits: 8
        offset: 0
      }
      allow_saturate: false
      method: STD_RN
      dr_ratio: 0.98
    }
    bias_convert {
      from: DBL
      to: INT
      to_coef {
        scale: 4039.4807432655975
        shifter: 0
        comp_scale: 1
        comp_shifter: 0
        bits: 16
        offset: 0
      }
      allow_saturate: false
      method: STD_RN
      dr_ratio: 0.4
    }
    output_truncat {
      from: DBL
      to: INT
      to_coef {
        scale: 1
        shifter: 0
        comp_scale: 1
        comp_shifter: 0
        bits: 32
        offset: 0
      }
      allow_saturate: true
      method: SIMPLE_RN
      dr_ratio: 0
    }
  }
}
layer {
  name: "relu7"
  type: "ReLU"
  bottom: "fc7"
  top: "fc7"
}
layer {
  name: "relu7_convert0"
  type: "Convertor"
  bottom: "fc7"
  top: "fc7"
  convert_param {
    from: DBL
    to: INT
    to_coef {
      scale: 29767
      shifter: 24
      comp_scale: 1
      comp_shifter: 0
      bits: 8
      offset: 0
    }
    allow_saturate: true
    method: SIMPLE_RN
    dr_ratio: 0.3
  }
  enable_dump_top: false
}
layer {
  name: "drop7"
  type: "Dropout"
  bottom: "fc7"
  top: "fc7"
  dropout_param {
    dropout_ratio: 0.5
  }
}
layer {
  name: "fc8"
  type: "InnerProduct"
  bottom: "fc7"
  top: "fc8"
  param {
    lr_mult: 1
    decay_mult: 1
  }
  param {
    lr_mult: 2
    decay_mult: 0
  }
  inner_product_param {
    num_output: 1000
    weight_filler {
      type: "gaussian"
      std: 0.01
    }
    bias_filler {
      type: "constant"
      value: 0
    }
    weight_convert {
      from: DBL
      to: INT
      to_coef {
        scale: 1700.1820762075363
        shifter: 0
        comp_scale: 1
        comp_shifter: 0
        bits: 8
        offset: 0
      }
      allow_saturate: false
      method: STD_RN
      dr_ratio: 0.98
    }
    bias_convert {
      from: DBL
      to: INT
      to_coef {
        scale: 12185.2977880368
        shifter: 0
        comp_scale: 1
        comp_shifter: 0
        bits: 16
        offset: 0
      }
      allow_saturate: false
      method: STD_RN
      dr_ratio: 0.4
    }
    output_truncat {
      from: DBL
      to: INT
      to_coef {
        scale: 1
        shifter: 0
        comp_scale: 1
        comp_shifter: 0
        bits: 32
        offset: 0
      }
      allow_saturate: true
      method: SIMPLE_RN
      dr_ratio: 0
    }
  }
}
layer {
  name: "fc8_convert0"
  type: "Convertor"
  bottom: "fc8"
  top: "fc8"
  convert_param {
    from: DBL
    to: INT
    to_coef {
      scale: 25561
      shifter: 26
      comp_scale: 1
      comp_shifter: 0
      bits: 8
      offset: 0
    }
    allow_saturate: true
    method: SIMPLE_RN
    dr_ratio: 0.3
  }
  enable_dump_top: false
}
layer {
  name: "accuracy_1_convert_in0"
  type: "Convertor"
  bottom: "fc8"
  top: "fc8"
  convert_param {
    from: DBL
    to: DBL
    to_coef {
      scale: 0.21545962511152761
      shifter: 0
      comp_scale: 1
      comp_shifter: 0
      bits: 64
      offset: -0
    }
    allow_saturate: false
    method: STD_RN
    dr_ratio: 0.1
  }
  enable_dump_top: false
}
layer {
  name: "accuracy_1"
  type: "Accuracy"
  bottom: "fc8"
  bottom: "label"
  top: "accuracy_1"
  include {
    phase: TEST
  }
  accuracy_param {
    top_k: 1
  }
}
layer {
  name: "accuracy_5"
  type: "Accuracy"
  bottom: "fc8"
  bottom: "label"
  top: "accuracy_5"
  include {
    phase: TEST
  }
  accuracy_param {
    top_k: 5
  }
}
layer {
  name: "loss"
  type: "SoftmaxWithLoss"
  bottom: "fc8"
  bottom: "label"
  top: "loss"
}
I0227 15:03:40.446389 16873 layer_factory.hpp:74] Creating layer data
I0227 15:03:40.446492 16873 net.cpp:2459] Creating Layer data
I0227 15:03:40.446514 16873 net.cpp:2792] data -> data
I0227 15:03:40.447324 16873 net.cpp:2792] data -> label
I0227 15:03:40.447388 16873 data_transformer.cpp:37] Loading mean file from: /home/scratch.yilinz_t19x_2/t19x/caffe-master-amodel/data/ilsvrc12/imagenet_mean.binaryproto
I0227 15:03:40.462141 16873 data_transformer.cpp:80] Mean dynamic range is: 94~131
I0227 15:03:40.462224 16873 data_transformer.cpp:81] Mean data ave is: 104.007, 116.67, 122.675
I0227 15:03:40.493695 16873 db.cpp:37] Opened lmdb /home/scratch.yilinz_t19x_2/t19x/caffe-master-amodel/../git/db/val_db0
I0227 15:03:40.493751 16873 db.cpp:47] before txn_begin
I0227 15:03:42.494463 16873 db.cpp:55] before dbi_open
I0227 15:03:44.494601 16873 db.cpp:64] before cusor_open
I0227 15:03:46.494740 16873 db.cpp:73] before new cursor
I0227 15:03:46.508843 16873 data_layer.cpp:63] output data size: 25,3,227,227
I0227 15:03:46.528486 16873 net.cpp:2509] Setting up data
I0227 15:03:46.528548 16873 net.cpp:2516] Top shape: 25 3 227 227 (3864675)
I0227 15:03:46.528558 16873 net.cpp:2516] Top shape: 25 (25)
I0227 15:03:46.528563 16873 net.cpp:2524] Memory required for data: 30917600
I0227 15:03:46.528581 16873 layer_factory.hpp:74] Creating layer label_data_1_split
I0227 15:03:46.528623 16873 net.cpp:2459] Creating Layer label_data_1_split
I0227 15:03:46.528636 16873 net.cpp:2836] label_data_1_split <- label
I0227 15:03:46.528666 16873 net.cpp:2792] label_data_1_split -> label_data_1_split_0
I0227 15:03:46.528688 16873 net.cpp:2792] label_data_1_split -> label_data_1_split_1
I0227 15:03:46.528697 16873 net.cpp:2792] label_data_1_split -> label_data_1_split_2
I0227 15:03:46.528712 16873 net.cpp:2509] Setting up label_data_1_split
I0227 15:03:46.528720 16873 net.cpp:2516] Top shape: 25 (25)
I0227 15:03:46.528728 16873 net.cpp:2516] Top shape: 25 (25)
I0227 15:03:46.528734 16873 net.cpp:2516] Top shape: 25 (25)
I0227 15:03:46.528739 16873 net.cpp:2524] Memory required for data: 30918200
I0227 15:03:46.528745 16873 layer_factory.hpp:74] Creating layer data_convert0
I0227 15:03:46.528770 16873 net.cpp:2459] Creating Layer data_convert0
I0227 15:03:46.528777 16873 net.cpp:2836] data_convert0 <- data
I0227 15:03:46.528786 16873 net.cpp:2781] data_convert0 -> data (in-place)
I0227 15:03:46.528801 16873 net.cpp:2509] Setting up data_convert0
I0227 15:03:46.528810 16873 net.cpp:2516] Top shape: 25 3 227 227 (3864675)
I0227 15:03:46.528815 16873 net.cpp:2524] Memory required for data: 61835600
I0227 15:03:46.528820 16873 layer_factory.hpp:74] Creating layer conv1
I0227 15:03:46.528923 16873 net.cpp:2459] Creating Layer conv1
I0227 15:03:46.528934 16873 net.cpp:2836] conv1 <- data
I0227 15:03:46.528945 16873 net.cpp:2792] conv1 -> conv1
I0227 15:03:46.531870 16873 net.cpp:2509] Setting up conv1
I0227 15:03:46.531903 16873 net.cpp:2516] Top shape: 25 96 55 55 (7260000)
I0227 15:03:46.531909 16873 net.cpp:2524] Memory required for data: 119915600
I0227 15:03:46.531942 16873 layer_factory.hpp:74] Creating layer relu1
I0227 15:03:46.531973 16873 net.cpp:2459] Creating Layer relu1
I0227 15:03:46.531982 16873 net.cpp:2836] relu1 <- conv1
I0227 15:03:46.531994 16873 net.cpp:2792] relu1 -> relu1
I0227 15:03:46.532013 16873 net.cpp:2509] Setting up relu1
I0227 15:03:46.532021 16873 net.cpp:2516] Top shape: 25 96 55 55 (7260000)
I0227 15:03:46.532027 16873 net.cpp:2524] Memory required for data: 177995600
I0227 15:03:46.532032 16873 layer_factory.hpp:74] Creating layer relu1_convert0
I0227 15:03:46.532064 16873 net.cpp:2459] Creating Layer relu1_convert0
I0227 15:03:46.532071 16873 net.cpp:2836] relu1_convert0 <- relu1
I0227 15:03:46.532083 16873 net.cpp:2781] relu1_convert0 -> relu1 (in-place)
I0227 15:03:46.532094 16873 net.cpp:2509] Setting up relu1_convert0
I0227 15:03:46.532100 16873 net.cpp:2516] Top shape: 25 96 55 55 (7260000)
I0227 15:03:46.532106 16873 net.cpp:2524] Memory required for data: 236075600
I0227 15:03:46.532171 16873 layer_factory.hpp:74] Creating layer norm1_convert_in0
I0227 15:03:46.532193 16873 net.cpp:2459] Creating Layer norm1_convert_in0
I0227 15:03:46.532202 16873 net.cpp:2836] norm1_convert_in0 <- relu1
I0227 15:03:46.532210 16873 net.cpp:2781] norm1_convert_in0 -> relu1 (in-place)
I0227 15:03:46.532219 16873 net.cpp:2509] Setting up norm1_convert_in0
I0227 15:03:46.532227 16873 net.cpp:2516] Top shape: 25 96 55 55 (7260000)
I0227 15:03:46.532233 16873 net.cpp:2524] Memory required for data: 294155600
I0227 15:03:46.532238 16873 layer_factory.hpp:74] Creating layer norm1
I0227 15:03:46.532312 16873 net.cpp:2459] Creating Layer norm1
I0227 15:03:46.532325 16873 net.cpp:2836] norm1 <- relu1
I0227 15:03:46.532333 16873 net.cpp:2792] norm1 -> norm1
I0227 15:03:46.533210 16873 net.cpp:2509] Setting up norm1
I0227 15:03:46.533228 16873 net.cpp:2516] Top shape: 25 96 55 55 (7260000)
I0227 15:03:46.533234 16873 net.cpp:2524] Memory required for data: 352235600
I0227 15:03:46.533241 16873 layer_factory.hpp:74] Creating layer norm1_convert0
I0227 15:03:46.533265 16873 net.cpp:2459] Creating Layer norm1_convert0
I0227 15:03:46.533273 16873 net.cpp:2836] norm1_convert0 <- norm1
I0227 15:03:46.533282 16873 net.cpp:2781] norm1_convert0 -> norm1 (in-place)
I0227 15:03:46.533293 16873 net.cpp:2509] Setting up norm1_convert0
I0227 15:03:46.533299 16873 net.cpp:2516] Top shape: 25 96 55 55 (7260000)
I0227 15:03:46.533305 16873 net.cpp:2524] Memory required for data: 410315600
I0227 15:03:46.533310 16873 layer_factory.hpp:74] Creating layer pool1
I0227 15:03:46.533365 16873 net.cpp:2459] Creating Layer pool1
I0227 15:03:46.533376 16873 net.cpp:2836] pool1 <- norm1
I0227 15:03:46.533385 16873 net.cpp:2792] pool1 -> pool1
I0227 15:03:46.533411 16873 net.cpp:2509] Setting up pool1
I0227 15:03:46.533421 16873 net.cpp:2516] Top shape: 25 96 27 27 (1749600)
I0227 15:03:46.533427 16873 net.cpp:2524] Memory required for data: 424312400
I0227 15:03:46.533432 16873 layer_factory.hpp:74] Creating layer conv2
I0227 15:03:46.533557 16873 net.cpp:2459] Creating Layer conv2
I0227 15:03:46.533567 16873 net.cpp:2836] conv2 <- pool1
I0227 15:03:46.533581 16873 net.cpp:2792] conv2 -> conv2
I0227 15:03:46.573173 16873 net.cpp:2509] Setting up conv2
I0227 15:03:46.573230 16873 net.cpp:2516] Top shape: 25 256 27 27 (4665600)
I0227 15:03:46.573236 16873 net.cpp:2524] Memory required for data: 461637200
I0227 15:03:46.573261 16873 layer_factory.hpp:74] Creating layer relu2
I0227 15:03:46.573304 16873 net.cpp:2459] Creating Layer relu2
I0227 15:03:46.573314 16873 net.cpp:2836] relu2 <- conv2
I0227 15:03:46.573331 16873 net.cpp:2781] relu2 -> conv2 (in-place)
I0227 15:03:46.578393 16873 net.cpp:2509] Setting up relu2
I0227 15:03:46.578438 16873 net.cpp:2516] Top shape: 25 256 27 27 (4665600)
I0227 15:03:46.578444 16873 net.cpp:2524] Memory required for data: 498962000
I0227 15:03:46.578451 16873 layer_factory.hpp:74] Creating layer relu2_convert0
I0227 15:03:46.578491 16873 net.cpp:2459] Creating Layer relu2_convert0
I0227 15:03:46.578500 16873 net.cpp:2836] relu2_convert0 <- conv2
I0227 15:03:46.578514 16873 net.cpp:2781] relu2_convert0 -> conv2 (in-place)
I0227 15:03:46.578527 16873 net.cpp:2509] Setting up relu2_convert0
I0227 15:03:46.578536 16873 net.cpp:2516] Top shape: 25 256 27 27 (4665600)
I0227 15:03:46.578541 16873 net.cpp:2524] Memory required for data: 536286800
I0227 15:03:46.578547 16873 layer_factory.hpp:74] Creating layer norm2_convert_in0
I0227 15:03:46.578579 16873 net.cpp:2459] Creating Layer norm2_convert_in0
I0227 15:03:46.578588 16873 net.cpp:2836] norm2_convert_in0 <- conv2
I0227 15:03:46.578596 16873 net.cpp:2781] norm2_convert_in0 -> conv2 (in-place)
I0227 15:03:46.578606 16873 net.cpp:2509] Setting up norm2_convert_in0
I0227 15:03:46.578613 16873 net.cpp:2516] Top shape: 25 256 27 27 (4665600)
I0227 15:03:46.578619 16873 net.cpp:2524] Memory required for data: 573611600
I0227 15:03:46.578625 16873 layer_factory.hpp:74] Creating layer norm2
I0227 15:03:46.578685 16873 net.cpp:2459] Creating Layer norm2
I0227 15:03:46.578699 16873 net.cpp:2836] norm2 <- conv2
I0227 15:03:46.578763 16873 net.cpp:2792] norm2 -> norm2
I0227 15:03:46.579617 16873 net.cpp:2509] Setting up norm2
I0227 15:03:46.579632 16873 net.cpp:2516] Top shape: 25 256 27 27 (4665600)
I0227 15:03:46.579638 16873 net.cpp:2524] Memory required for data: 610936400
I0227 15:03:46.579643 16873 layer_factory.hpp:74] Creating layer norm2_convert0
I0227 15:03:46.579668 16873 net.cpp:2459] Creating Layer norm2_convert0
I0227 15:03:46.579675 16873 net.cpp:2836] norm2_convert0 <- norm2
I0227 15:03:46.579686 16873 net.cpp:2781] norm2_convert0 -> norm2 (in-place)
I0227 15:03:46.579696 16873 net.cpp:2509] Setting up norm2_convert0
I0227 15:03:46.579704 16873 net.cpp:2516] Top shape: 25 256 27 27 (4665600)
I0227 15:03:46.579710 16873 net.cpp:2524] Memory required for data: 648261200
I0227 15:03:46.579715 16873 layer_factory.hpp:74] Creating layer pool2
I0227 15:03:46.579751 16873 net.cpp:2459] Creating Layer pool2
I0227 15:03:46.579759 16873 net.cpp:2836] pool2 <- norm2
I0227 15:03:46.579767 16873 net.cpp:2792] pool2 -> pool2
I0227 15:03:46.579782 16873 net.cpp:2509] Setting up pool2
I0227 15:03:46.579790 16873 net.cpp:2516] Top shape: 25 256 13 13 (1081600)
I0227 15:03:46.579797 16873 net.cpp:2524] Memory required for data: 656914000
I0227 15:03:46.579802 16873 layer_factory.hpp:74] Creating layer conv3
I0227 15:03:46.579975 16873 net.cpp:2459] Creating Layer conv3
I0227 15:03:46.579987 16873 net.cpp:2836] conv3 <- pool2
I0227 15:03:46.580000 16873 net.cpp:2792] conv3 -> conv3
I0227 15:03:46.719205 16873 net.cpp:2509] Setting up conv3
I0227 15:03:46.719262 16873 net.cpp:2516] Top shape: 25 384 13 13 (1622400)
I0227 15:03:46.719269 16873 net.cpp:2524] Memory required for data: 669893200
I0227 15:03:46.719291 16873 layer_factory.hpp:74] Creating layer relu3
I0227 15:03:46.719349 16873 net.cpp:2459] Creating Layer relu3
I0227 15:03:46.719362 16873 net.cpp:2836] relu3 <- conv3
I0227 15:03:46.719379 16873 net.cpp:2781] relu3 -> conv3 (in-place)
I0227 15:03:46.719398 16873 net.cpp:2509] Setting up relu3
I0227 15:03:46.719404 16873 net.cpp:2516] Top shape: 25 384 13 13 (1622400)
I0227 15:03:46.719410 16873 net.cpp:2524] Memory required for data: 682872400
I0227 15:03:46.719415 16873 layer_factory.hpp:74] Creating layer relu3_convert0
I0227 15:03:46.719437 16873 net.cpp:2459] Creating Layer relu3_convert0
I0227 15:03:46.719445 16873 net.cpp:2836] relu3_convert0 <- conv3
I0227 15:03:46.719454 16873 net.cpp:2781] relu3_convert0 -> conv3 (in-place)
I0227 15:03:46.719463 16873 net.cpp:2509] Setting up relu3_convert0
I0227 15:03:46.719470 16873 net.cpp:2516] Top shape: 25 384 13 13 (1622400)
I0227 15:03:46.719476 16873 net.cpp:2524] Memory required for data: 695851600
I0227 15:03:46.719481 16873 layer_factory.hpp:74] Creating layer conv4
I0227 15:03:46.719627 16873 net.cpp:2459] Creating Layer conv4
I0227 15:03:46.719637 16873 net.cpp:2836] conv4 <- conv3
I0227 15:03:46.719650 16873 net.cpp:2792] conv4 -> conv4
I0227 15:03:46.819778 16873 net.cpp:2509] Setting up conv4
I0227 15:03:46.819835 16873 net.cpp:2516] Top shape: 25 384 13 13 (1622400)
I0227 15:03:46.819841 16873 net.cpp:2524] Memory required for data: 708830800
I0227 15:03:46.819859 16873 layer_factory.hpp:74] Creating layer relu4
I0227 15:03:46.819900 16873 net.cpp:2459] Creating Layer relu4
I0227 15:03:46.819910 16873 net.cpp:2836] relu4 <- conv4
I0227 15:03:46.819923 16873 net.cpp:2781] relu4 -> conv4 (in-place)
I0227 15:03:46.819941 16873 net.cpp:2509] Setting up relu4
I0227 15:03:46.819948 16873 net.cpp:2516] Top shape: 25 384 13 13 (1622400)
I0227 15:03:46.819953 16873 net.cpp:2524] Memory required for data: 721810000
I0227 15:03:46.819959 16873 layer_factory.hpp:74] Creating layer relu4_convert0
I0227 15:03:46.819983 16873 net.cpp:2459] Creating Layer relu4_convert0
I0227 15:03:46.819990 16873 net.cpp:2836] relu4_convert0 <- conv4
I0227 15:03:46.820000 16873 net.cpp:2781] relu4_convert0 -> conv4 (in-place)
I0227 15:03:46.820010 16873 net.cpp:2509] Setting up relu4_convert0
I0227 15:03:46.820025 16873 net.cpp:2516] Top shape: 25 384 13 13 (1622400)
I0227 15:03:46.820081 16873 net.cpp:2524] Memory required for data: 734789200
I0227 15:03:46.820089 16873 layer_factory.hpp:74] Creating layer conv5
I0227 15:03:46.820247 16873 net.cpp:2459] Creating Layer conv5
I0227 15:03:46.820258 16873 net.cpp:2836] conv5 <- conv4
I0227 15:03:46.820272 16873 net.cpp:2792] conv5 -> conv5
I0227 15:03:46.888911 16873 net.cpp:2509] Setting up conv5
I0227 15:03:46.888970 16873 net.cpp:2516] Top shape: 25 256 13 13 (1081600)
I0227 15:03:46.888976 16873 net.cpp:2524] Memory required for data: 743442000
I0227 15:03:46.889000 16873 layer_factory.hpp:74] Creating layer relu5
I0227 15:03:46.889041 16873 net.cpp:2459] Creating Layer relu5
I0227 15:03:46.889055 16873 net.cpp:2836] relu5 <- conv5
I0227 15:03:46.889068 16873 net.cpp:2781] relu5 -> conv5 (in-place)
I0227 15:03:46.889086 16873 net.cpp:2509] Setting up relu5
I0227 15:03:46.889092 16873 net.cpp:2516] Top shape: 25 256 13 13 (1081600)
I0227 15:03:46.889098 16873 net.cpp:2524] Memory required for data: 752094800
I0227 15:03:46.889103 16873 layer_factory.hpp:74] Creating layer relu5_convert0
I0227 15:03:46.889127 16873 net.cpp:2459] Creating Layer relu5_convert0
I0227 15:03:46.889134 16873 net.cpp:2836] relu5_convert0 <- conv5
I0227 15:03:46.889144 16873 net.cpp:2781] relu5_convert0 -> conv5 (in-place)
I0227 15:03:46.889155 16873 net.cpp:2509] Setting up relu5_convert0
I0227 15:03:46.889163 16873 net.cpp:2516] Top shape: 25 256 13 13 (1081600)
I0227 15:03:46.889168 16873 net.cpp:2524] Memory required for data: 760747600
I0227 15:03:46.889174 16873 layer_factory.hpp:74] Creating layer pool5
I0227 15:03:46.889212 16873 net.cpp:2459] Creating Layer pool5
I0227 15:03:46.889220 16873 net.cpp:2836] pool5 <- conv5
I0227 15:03:46.889230 16873 net.cpp:2792] pool5 -> pool5
I0227 15:03:46.889248 16873 net.cpp:2509] Setting up pool5
I0227 15:03:46.889256 16873 net.cpp:2516] Top shape: 25 256 6 6 (230400)
I0227 15:03:46.889261 16873 net.cpp:2524] Memory required for data: 762590800
I0227 15:03:46.889267 16873 layer_factory.hpp:74] Creating layer fc6
I0227 15:03:46.889379 16873 net.cpp:2459] Creating Layer fc6
I0227 15:03:46.889389 16873 net.cpp:2836] fc6 <- pool5
I0227 15:03:46.889402 16873 net.cpp:2792] fc6 -> fc6
I0227 15:03:50.818315 16873 net.cpp:2509] Setting up fc6
I0227 15:03:50.818380 16873 net.cpp:2516] Top shape: 25 4096 (102400)
I0227 15:03:50.818387 16873 net.cpp:2524] Memory required for data: 763410000
I0227 15:03:50.818405 16873 layer_factory.hpp:74] Creating layer relu6
I0227 15:03:50.818447 16873 net.cpp:2459] Creating Layer relu6
I0227 15:03:50.818459 16873 net.cpp:2836] relu6 <- fc6
I0227 15:03:50.818475 16873 net.cpp:2781] relu6 -> fc6 (in-place)
I0227 15:03:50.818493 16873 net.cpp:2509] Setting up relu6
I0227 15:03:50.818500 16873 net.cpp:2516] Top shape: 25 4096 (102400)
I0227 15:03:50.818506 16873 net.cpp:2524] Memory required for data: 764229200
I0227 15:03:50.818511 16873 layer_factory.hpp:74] Creating layer relu6_convert0
I0227 15:03:50.818538 16873 net.cpp:2459] Creating Layer relu6_convert0
I0227 15:03:50.818547 16873 net.cpp:2836] relu6_convert0 <- fc6
I0227 15:03:50.818554 16873 net.cpp:2781] relu6_convert0 -> fc6 (in-place)
I0227 15:03:50.818567 16873 net.cpp:2509] Setting up relu6_convert0
I0227 15:03:50.818573 16873 net.cpp:2516] Top shape: 25 4096 (102400)
I0227 15:03:50.818578 16873 net.cpp:2524] Memory required for data: 765048400
I0227 15:03:50.818584 16873 layer_factory.hpp:74] Creating layer drop6
I0227 15:03:50.818605 16873 net.cpp:2459] Creating Layer drop6
I0227 15:03:50.818614 16873 net.cpp:2836] drop6 <- fc6
I0227 15:03:50.818624 16873 net.cpp:2781] drop6 -> fc6 (in-place)
I0227 15:03:50.818644 16873 net.cpp:2509] Setting up drop6
I0227 15:03:50.818651 16873 net.cpp:2516] Top shape: 25 4096 (102400)
I0227 15:03:50.818656 16873 net.cpp:2524] Memory required for data: 765867600
I0227 15:03:50.818662 16873 layer_factory.hpp:74] Creating layer fc7
I0227 15:03:50.818745 16873 net.cpp:2459] Creating Layer fc7
I0227 15:03:50.818754 16873 net.cpp:2836] fc7 <- fc6
I0227 15:03:50.818775 16873 net.cpp:2792] fc7 -> fc7
I0227 15:03:52.096813 16873 net.cpp:2509] Setting up fc7
I0227 15:03:52.096870 16873 net.cpp:2516] Top shape: 25 4096 (102400)
I0227 15:03:52.096876 16873 net.cpp:2524] Memory required for data: 766686800
I0227 15:03:52.096894 16873 layer_factory.hpp:74] Creating layer relu7
I0227 15:03:52.096940 16873 net.cpp:2459] Creating Layer relu7
I0227 15:03:52.096951 16873 net.cpp:2836] relu7 <- fc7
I0227 15:03:52.096967 16873 net.cpp:2781] relu7 -> fc7 (in-place)
I0227 15:03:52.096985 16873 net.cpp:2509] Setting up relu7
I0227 15:03:52.096992 16873 net.cpp:2516] Top shape: 25 4096 (102400)
I0227 15:03:52.096997 16873 net.cpp:2524] Memory required for data: 767506000
I0227 15:03:52.097003 16873 layer_factory.hpp:74] Creating layer relu7_convert0
I0227 15:03:52.097028 16873 net.cpp:2459] Creating Layer relu7_convert0
I0227 15:03:52.097034 16873 net.cpp:2836] relu7_convert0 <- fc7
I0227 15:03:52.097043 16873 net.cpp:2781] relu7_convert0 -> fc7 (in-place)
I0227 15:03:52.097054 16873 net.cpp:2509] Setting up relu7_convert0
I0227 15:03:52.097061 16873 net.cpp:2516] Top shape: 25 4096 (102400)
I0227 15:03:52.097066 16873 net.cpp:2524] Memory required for data: 768325200
I0227 15:03:52.097072 16873 layer_factory.hpp:74] Creating layer drop7
I0227 15:03:52.097095 16873 net.cpp:2459] Creating Layer drop7
I0227 15:03:52.097103 16873 net.cpp:2836] drop7 <- fc7
I0227 15:03:52.097113 16873 net.cpp:2781] drop7 -> fc7 (in-place)
I0227 15:03:52.097126 16873 net.cpp:2509] Setting up drop7
I0227 15:03:52.097134 16873 net.cpp:2516] Top shape: 25 4096 (102400)
I0227 15:03:52.097139 16873 net.cpp:2524] Memory required for data: 769144400
I0227 15:03:52.097144 16873 layer_factory.hpp:74] Creating layer fc8
I0227 15:03:52.097230 16873 net.cpp:2459] Creating Layer fc8
I0227 15:03:52.097239 16873 net.cpp:2836] fc8 <- fc7
I0227 15:03:52.097251 16873 net.cpp:2792] fc8 -> fc8
I0227 15:03:52.409297 16873 net.cpp:2509] Setting up fc8
I0227 15:03:52.409363 16873 net.cpp:2516] Top shape: 25 1000 (25000)
I0227 15:03:52.409369 16873 net.cpp:2524] Memory required for data: 769344400
I0227 15:03:52.409387 16873 layer_factory.hpp:74] Creating layer fc8_convert0
I0227 15:03:52.409427 16873 net.cpp:2459] Creating Layer fc8_convert0
I0227 15:03:52.409437 16873 net.cpp:2836] fc8_convert0 <- fc8
I0227 15:03:52.409454 16873 net.cpp:2781] fc8_convert0 -> fc8 (in-place)
I0227 15:03:52.409473 16873 net.cpp:2509] Setting up fc8_convert0
I0227 15:03:52.409482 16873 net.cpp:2516] Top shape: 25 1000 (25000)
I0227 15:03:52.409487 16873 net.cpp:2524] Memory required for data: 769544400
I0227 15:03:52.409492 16873 layer_factory.hpp:74] Creating layer accuracy_1_convert_in0
I0227 15:03:52.409512 16873 net.cpp:2459] Creating Layer accuracy_1_convert_in0
I0227 15:03:52.409518 16873 net.cpp:2836] accuracy_1_convert_in0 <- fc8
I0227 15:03:52.409526 16873 net.cpp:2781] accuracy_1_convert_in0 -> fc8 (in-place)
I0227 15:03:52.409536 16873 net.cpp:2509] Setting up accuracy_1_convert_in0
I0227 15:03:52.409543 16873 net.cpp:2516] Top shape: 25 1000 (25000)
I0227 15:03:52.409548 16873 net.cpp:2524] Memory required for data: 769744400
I0227 15:03:52.409554 16873 layer_factory.hpp:74] Creating layer fc8_accuracy_1_convert_in0_0_split
I0227 15:03:52.409576 16873 net.cpp:2459] Creating Layer fc8_accuracy_1_convert_in0_0_split
I0227 15:03:52.409584 16873 net.cpp:2836] fc8_accuracy_1_convert_in0_0_split <- fc8
I0227 15:03:52.409595 16873 net.cpp:2792] fc8_accuracy_1_convert_in0_0_split -> fc8_accuracy_1_convert_in0_0_split_0
I0227 15:03:52.409608 16873 net.cpp:2792] fc8_accuracy_1_convert_in0_0_split -> fc8_accuracy_1_convert_in0_0_split_1
I0227 15:03:52.409617 16873 net.cpp:2792] fc8_accuracy_1_convert_in0_0_split -> fc8_accuracy_1_convert_in0_0_split_2
I0227 15:03:52.409641 16873 net.cpp:2509] Setting up fc8_accuracy_1_convert_in0_0_split
I0227 15:03:52.409648 16873 net.cpp:2516] Top shape: 25 1000 (25000)
I0227 15:03:52.409656 16873 net.cpp:2516] Top shape: 25 1000 (25000)
I0227 15:03:52.409662 16873 net.cpp:2516] Top shape: 25 1000 (25000)
I0227 15:03:52.409674 16873 net.cpp:2524] Memory required for data: 770344400
I0227 15:03:52.409730 16873 layer_factory.hpp:74] Creating layer accuracy_1
I0227 15:03:52.409759 16873 net.cpp:2459] Creating Layer accuracy_1
I0227 15:03:52.409767 16873 net.cpp:2836] accuracy_1 <- fc8_accuracy_1_convert_in0_0_split_0
I0227 15:03:52.409775 16873 net.cpp:2836] accuracy_1 <- label_data_1_split_0
I0227 15:03:52.409783 16873 net.cpp:2792] accuracy_1 -> accuracy_1
I0227 15:03:52.409801 16873 net.cpp:2509] Setting up accuracy_1
I0227 15:03:52.409809 16873 net.cpp:2516] Top shape: 2 (2)
I0227 15:03:52.409814 16873 net.cpp:2524] Memory required for data: 770344416
I0227 15:03:52.409819 16873 layer_factory.hpp:74] Creating layer accuracy_5
I0227 15:03:52.409844 16873 net.cpp:2459] Creating Layer accuracy_5
I0227 15:03:52.409852 16873 net.cpp:2836] accuracy_5 <- fc8_accuracy_1_convert_in0_0_split_1
I0227 15:03:52.409859 16873 net.cpp:2836] accuracy_5 <- label_data_1_split_1
I0227 15:03:52.409868 16873 net.cpp:2792] accuracy_5 -> accuracy_5
I0227 15:03:52.409878 16873 net.cpp:2509] Setting up accuracy_5
I0227 15:03:52.409885 16873 net.cpp:2516] Top shape: 2 (2)
I0227 15:03:52.409890 16873 net.cpp:2524] Memory required for data: 770344432
I0227 15:03:52.409895 16873 layer_factory.hpp:74] Creating layer loss
I0227 15:03:52.409917 16873 net.cpp:2459] Creating Layer loss
I0227 15:03:52.409924 16873 net.cpp:2836] loss <- fc8_accuracy_1_convert_in0_0_split_2
I0227 15:03:52.409931 16873 net.cpp:2836] loss <- label_data_1_split_2
I0227 15:03:52.409940 16873 net.cpp:2792] loss -> loss
…
