…
I0403 00:11:09.397930 17630 net.cpp:2228] Initializing net from parameters: 
name: "AlexNet"
state {
  phase: TEST
  stage: ""
}
debug_info: true
layer {
  name: "data"
  type: "Data"
  top: "data"
  top: "label"
  include {
    phase: TEST
  }
  transform_param {
    mirror: false
    crop_size: 227
    mean_file: "/home/scratch.yilinz_t19x/git/dla_amod/data/ilsvrc12/imagenet_mean.binaryproto"
  }
  data_param {
    source: "/home/scratch.yilinz_t19x/git/dla_amod/../db/val_db8"
    batch_size: 50
    backend: LMDB
    skip: 44001
    interval: 2
  }
}
layer {
  name: "conv1"
  type: "Convolution"
  bottom: "data"
  top: "conv1"
  param {
    lr_mult: 1
    decay_mult: 1
  }
  param {
    lr_mult: 2
    decay_mult: 0
  }
  convolution_param {
    num_output: 96
    kernel_size: 11
    stride: 4
    weight_filler {
      type: "gaussian"
      std: 0.01
    }
    bias_filler {
      type: "constant"
      value: 0
    }
  }
}
layer {
  name: "relu1"
  type: "ReLU"
  bottom: "conv1"
  top: "relu1"
}
layer {
  name: "norm1"
  type: "LRN"
  bottom: "relu1"
  top: "norm1"
  lrn_param {
    local_size: 5
    alpha: 0.0001
    beta: 0.75
  }
}
layer {
  name: "pool1"
  type: "Pooling"
  bottom: "norm1"
  top: "pool1"
  pooling_param {
    pool: MAX
    kernel_size: 3
    stride: 2
  }
}
layer {
  name: "conv2"
  type: "Convolution"
  bottom: "pool1"
  top: "conv2"
  param {
    lr_mult: 1
    decay_mult: 1
  }
  param {
    lr_mult: 2
    decay_mult: 0
  }
  convolution_param {
    num_output: 256
    pad: 2
    kernel_size: 5
    group: 2
    weight_filler {
      type: "gaussian"
      std: 0.01
    }
    bias_filler {
      type: "constant"
      value: 0.1
    }
  }
}
layer {
  name: "relu2"
  type: "ReLU"
  bottom: "conv2"
  top: "conv2"
}
layer {
  name: "norm2"
  type: "LRN"
  bottom: "conv2"
  top: "norm2"
  lrn_param {
    local_size: 5
    alpha: 0.0001
    beta: 0.75
  }
}
layer {
  name: "pool2"
  type: "Pooling"
  bottom: "norm2"
  top: "pool2"
  pooling_param {
    pool: MAX
    kernel_size: 3
    stride: 2
  }
}
layer {
  name: "conv3"
  type: "Convolution"
  bottom: "pool2"
  top: "conv3"
  param {
    lr_mult: 1
    decay_mult: 1
  }
  param {
    lr_mult: 2
    decay_mult: 0
  }
  convolution_param {
    num_output: 384
    pad: 1
    kernel_size: 3
    weight_filler {
      type: "gaussian"
      std: 0.01
    }
    bias_filler {
      type: "constant"
      value: 0
    }
  }
}
layer {
  name: "relu3"
  type: "ReLU"
  bottom: "conv3"
  top: "conv3"
}
layer {
  name: "conv4"
  type: "Convolution"
  bottom: "conv3"
  top: "conv4"
  param {
    lr_mult: 1
    decay_mult: 1
  }
  param {
    lr_mult: 2
    decay_mult: 0
  }
  convolution_param {
    num_output: 384
    pad: 1
    kernel_size: 3
    group: 2
    weight_filler {
      type: "gaussian"
      std: 0.01
    }
    bias_filler {
      type: "constant"
      value: 0.1
    }
  }
}
layer {
  name: "relu4"
  type: "ReLU"
  bottom: "conv4"
  top: "conv4"
}
layer {
  name: "conv5"
  type: "Convolution"
  bottom: "conv4"
  top: "conv5"
  param {
    lr_mult: 1
    decay_mult: 1
  }
  param {
    lr_mult: 2
    decay_mult: 0
  }
  convolution_param {
    num_output: 256
    pad: 1
    kernel_size: 3
    group: 2
    weight_filler {
      type: "gaussian"
      std: 0.01
    }
    bias_filler {
      type: "constant"
      value: 0.1
    }
  }
}
layer {
  name: "relu5"
  type: "ReLU"
  bottom: "conv5"
  top: "conv5"
}
layer {
  name: "pool5"
  type: "Pooling"
  bottom: "conv5"
  top: "pool5"
  pooling_param {
    pool: MAX
    kernel_size: 3
    stride: 2
  }
}
layer {
  name: "fc6"
  type: "InnerProduct"
  bottom: "pool5"
  top: "fc6"
  param {
    lr_mult: 1
    decay_mult: 1
  }
  param {
    lr_mult: 2
    decay_mult: 0
  }
  inner_product_param {
    num_output: 4096
    weight_filler {
      type: "gaussian"
      std: 0.005
    }
    bias_filler {
      type: "constant"
      value: 0.1
    }
  }
}
layer {
  name: "relu6"
  type: "ReLU"
  bottom: "fc6"
  top: "fc6"
}
layer {
  name: "drop6"
  type: "Dropout"
  bottom: "fc6"
  top: "fc6"
  dropout_param {
    dropout_ratio: 0.5
  }
}
layer {
  name: "fc7"
  type: "InnerProduct"
  bottom: "fc6"
  top: "fc7"
  param {
    lr_mult: 1
    decay_mult: 1
  }
  param {
    lr_mult: 2
    decay_mult: 0
  }
  inner_product_param {
    num_output: 4096
    weight_filler {
      type: "gaussian"
      std: 0.005
    }
    bias_filler {
      type: "constant"
      value: 0.1
    }
  }
}
layer {
  name: "relu7"
  type: "ReLU"
  bottom: "fc7"
  top: "fc7"
}
layer {
  name: "drop7"
  type: "Dropout"
  bottom: "fc7"
  top: "fc7"
  dropout_param {
    dropout_ratio: 0.5
  }
}
layer {
  name: "fc8"
  type: "InnerProduct"
  bottom: "fc7"
  top: "fc8"
  param {
    lr_mult: 1
    decay_mult: 1
  }
  param {
    lr_mult: 2
    decay_mult: 0
  }
  inner_product_param {
    num_output: 1000
    weight_filler {
      type: "gaussian"
      std: 0.01
    }
    bias_filler {
      type: "constant"
      value: 0
    }
  }
}
layer {
  name: "accuracy_1"
  type: "Accuracy"
  bottom: "fc8"
  bottom: "label"
  top: "accuracy_1"
  include {
    phase: TEST
  }
  accuracy_param {
    top_k: 1
  }
}
layer {
  name: "accuracy_5"
  type: "Accuracy"
  bottom: "fc8"
  bottom: "label"
  top: "accuracy_5"
  include {
    phase: TEST
  }
  accuracy_param {
    top_k: 5
  }
}
layer {
  name: "loss"
  type: "SoftmaxWithLoss"
  bottom: "fc8"
  bottom: "label"
  top: "loss"
}
I0403 00:11:09.398115 17630 layer_factory.hpp:77] Creating layer data
I0403 00:11:09.566198 17630 db_lmdb.cpp:35] Opened lmdb /home/scratch.yilinz_t19x/git/dla_amod/../db/val_db8
I0403 00:11:09.587258 17630 net.cpp:2261] Creating Layer data
I0403 00:11:09.587302 17630 net.cpp:2577] data -> data
I0403 00:11:09.587340 17630 net.cpp:2577] data -> label
I0403 00:11:09.587373 17630 data_transformer.cpp:26] Loading mean file from: /home/scratch.yilinz_t19x/git/dla_amod/data/ilsvrc12/imagenet_mean.binaryproto
I0403 00:11:09.618537 17630 data_layer.cpp:48] output data size: 50,3,227,227
I0403 00:11:09.775657 17630 net.cpp:2299] Setting up data
I0403 00:11:09.775712 17630 net.cpp:2306] Top shape: 50 3 227 227 (7729350)
I0403 00:11:09.775722 17630 net.cpp:2306] Top shape: 50 (50)
I0403 00:11:09.775727 17630 net.cpp:2314] Memory required for data: 61835200
I0403 00:11:09.775737 17630 net.cpp:2321] line: 2321
I0403 00:11:09.775745 17630 net.cpp:2333] line: 2333
I0403 00:11:09.775749 17630 net.cpp:2337] line: 2337
I0403 00:11:09.775759 17630 layer_factory.hpp:77] Creating layer label_data_1_split
I0403 00:11:09.775789 17630 net.cpp:2261] Creating Layer label_data_1_split
I0403 00:11:09.775799 17630 net.cpp:2603] label_data_1_split <- label
I0403 00:11:09.775820 17630 net.cpp:2577] label_data_1_split -> label_data_1_split_0
I0403 00:11:09.775836 17630 net.cpp:2577] label_data_1_split -> label_data_1_split_1
I0403 00:11:09.775844 17630 net.cpp:2577] label_data_1_split -> label_data_1_split_2
I0403 00:11:09.775862 17630 net.cpp:2299] Setting up label_data_1_split
I0403 00:11:09.775871 17630 net.cpp:2306] Top shape: 50 (50)
I0403 00:11:09.775876 17630 net.cpp:2306] Top shape: 50 (50)
I0403 00:11:09.775882 17630 net.cpp:2306] Top shape: 50 (50)
I0403 00:11:09.775887 17630 net.cpp:2314] Memory required for data: 61836400
I0403 00:11:09.775890 17630 net.cpp:2321] line: 2321
I0403 00:11:09.775894 17630 net.cpp:2333] line: 2333
I0403 00:11:09.775898 17630 net.cpp:2337] line: 2337
I0403 00:11:09.775902 17630 layer_factory.hpp:77] Creating layer conv1
I0403 00:11:09.775974 17630 net.cpp:2261] Creating Layer conv1
I0403 00:11:09.775981 17630 net.cpp:2603] conv1 <- data
I0403 00:11:09.775991 17630 net.cpp:2577] conv1 -> conv1
I0403 00:11:09.778483 17630 net.cpp:2299] Setting up conv1
I0403 00:11:09.778496 17630 net.cpp:2306] Top shape: 50 96 55 55 (14520000)
I0403 00:11:09.778501 17630 net.cpp:2314] Memory required for data: 177996400
I0403 00:11:09.778511 17630 net.cpp:2321] line: 2321
I0403 00:11:09.778553 17630 net.cpp:2328] line: 2328param_id:0 layer_id:2
I0403 00:11:09.778563 17630 net.cpp:2331] line: 2331
I0403 00:11:09.778568 17630 net.cpp:2328] line: 2328param_id:1 layer_id:2
I0403 00:11:09.778571 17630 net.cpp:2331] line: 2331
I0403 00:11:09.778575 17630 net.cpp:2333] line: 2333
I0403 00:11:09.778591 17630 net.cpp:2337] line: 2337
I0403 00:11:09.778596 17630 layer_factory.hpp:77] Creating layer relu1
I0403 00:11:09.778612 17630 net.cpp:2261] Creating Layer relu1
I0403 00:11:09.778618 17630 net.cpp:2603] relu1 <- conv1
I0403 00:11:09.778625 17630 net.cpp:2577] relu1 -> relu1
I0403 00:11:09.778635 17630 net.cpp:2299] Setting up relu1
I0403 00:11:09.778641 17630 net.cpp:2306] Top shape: 50 96 55 55 (14520000)
I0403 00:11:09.778646 17630 net.cpp:2314] Memory required for data: 294156400
I0403 00:11:09.778650 17630 net.cpp:2321] line: 2321
I0403 00:11:09.778654 17630 net.cpp:2333] line: 2333
I0403 00:11:09.778658 17630 net.cpp:2337] line: 2337
I0403 00:11:09.778662 17630 layer_factory.hpp:77] Creating layer norm1
I0403 00:11:09.778679 17630 net.cpp:2261] Creating Layer norm1
I0403 00:11:09.778684 17630 net.cpp:2603] norm1 <- relu1
I0403 00:11:09.778692 17630 net.cpp:2577] norm1 -> norm1
I0403 00:11:09.778704 17630 net.cpp:2299] Setting up norm1
I0403 00:11:09.778712 17630 net.cpp:2306] Top shape: 50 96 55 55 (14520000)
I0403 00:11:09.778717 17630 net.cpp:2314] Memory required for data: 410316400
I0403 00:11:09.778720 17630 net.cpp:2321] line: 2321
I0403 00:11:09.778724 17630 net.cpp:2333] line: 2333
I0403 00:11:09.778728 17630 net.cpp:2337] line: 2337
I0403 00:11:09.778734 17630 layer_factory.hpp:77] Creating layer pool1
I0403 00:11:09.778756 17630 net.cpp:2261] Creating Layer pool1
I0403 00:11:09.778761 17630 net.cpp:2603] pool1 <- norm1
I0403 00:11:09.778769 17630 net.cpp:2577] pool1 -> pool1
I0403 00:11:09.778791 17630 net.cpp:2299] Setting up pool1
I0403 00:11:09.778800 17630 net.cpp:2306] Top shape: 50 96 27 27 (3499200)
I0403 00:11:09.778805 17630 net.cpp:2314] Memory required for data: 438310000
I0403 00:11:09.778808 17630 net.cpp:2321] line: 2321
I0403 00:11:09.778812 17630 net.cpp:2333] line: 2333
I0403 00:11:09.778816 17630 net.cpp:2337] line: 2337
I0403 00:11:09.778820 17630 layer_factory.hpp:77] Creating layer conv2
I0403 00:11:09.778878 17630 net.cpp:2261] Creating Layer conv2
I0403 00:11:09.778885 17630 net.cpp:2603] conv2 <- pool1
I0403 00:11:09.778895 17630 net.cpp:2577] conv2 -> conv2
I0403 00:11:09.802641 17630 net.cpp:2299] Setting up conv2
I0403 00:11:09.802680 17630 net.cpp:2306] Top shape: 50 256 27 27 (9331200)
I0403 00:11:09.802685 17630 net.cpp:2314] Memory required for data: 512959600
I0403 00:11:09.802690 17630 net.cpp:2321] line: 2321
I0403 00:11:09.802696 17630 net.cpp:2328] line: 2328param_id:0 layer_id:6
I0403 00:11:09.802700 17630 net.cpp:2331] line: 2331
I0403 00:11:09.802705 17630 net.cpp:2328] line: 2328param_id:1 layer_id:6
I0403 00:11:09.802708 17630 net.cpp:2331] line: 2331
I0403 00:11:09.802711 17630 net.cpp:2333] line: 2333
I0403 00:11:09.802726 17630 net.cpp:2337] line: 2337
I0403 00:11:09.802732 17630 layer_factory.hpp:77] Creating layer relu2
I0403 00:11:09.802759 17630 net.cpp:2261] Creating Layer relu2
I0403 00:11:09.802769 17630 net.cpp:2603] relu2 <- conv2
I0403 00:11:09.802779 17630 net.cpp:2564] relu2 -> conv2 (in-place)
I0403 00:11:09.802791 17630 net.cpp:2299] Setting up relu2
I0403 00:11:09.802798 17630 net.cpp:2306] Top shape: 50 256 27 27 (9331200)
I0403 00:11:09.802803 17630 net.cpp:2314] Memory required for data: 587609200
I0403 00:11:09.802808 17630 net.cpp:2321] line: 2321
I0403 00:11:09.802811 17630 net.cpp:2333] line: 2333
I0403 00:11:09.802815 17630 net.cpp:2337] line: 2337
I0403 00:11:09.802819 17630 layer_factory.hpp:77] Creating layer norm2
I0403 00:11:09.802839 17630 net.cpp:2261] Creating Layer norm2
I0403 00:11:09.802845 17630 net.cpp:2603] norm2 <- conv2
I0403 00:11:09.802852 17630 net.cpp:2577] norm2 -> norm2
I0403 00:11:09.802868 17630 net.cpp:2299] Setting up norm2
I0403 00:11:09.802881 17630 net.cpp:2306] Top shape: 50 256 27 27 (9331200)
I0403 00:11:09.802917 17630 net.cpp:2314] Memory required for data: 662258800
I0403 00:11:09.802922 17630 net.cpp:2321] line: 2321
I0403 00:11:09.802927 17630 net.cpp:2333] line: 2333
I0403 00:11:09.802930 17630 net.cpp:2337] line: 2337
I0403 00:11:09.802935 17630 layer_factory.hpp:77] Creating layer pool2
I0403 00:11:09.802963 17630 net.cpp:2261] Creating Layer pool2
I0403 00:11:09.802969 17630 net.cpp:2603] pool2 <- norm2
I0403 00:11:09.802978 17630 net.cpp:2577] pool2 -> pool2
I0403 00:11:09.802990 17630 net.cpp:2299] Setting up pool2
I0403 00:11:09.802997 17630 net.cpp:2306] Top shape: 50 256 13 13 (2163200)
I0403 00:11:09.803001 17630 net.cpp:2314] Memory required for data: 679564400
I0403 00:11:09.803005 17630 net.cpp:2321] line: 2321
I0403 00:11:09.803009 17630 net.cpp:2333] line: 2333
I0403 00:11:09.803014 17630 net.cpp:2337] line: 2337
I0403 00:11:09.803017 17630 layer_factory.hpp:77] Creating layer conv3
I0403 00:11:09.803077 17630 net.cpp:2261] Creating Layer conv3
I0403 00:11:09.803083 17630 net.cpp:2603] conv3 <- pool2
I0403 00:11:09.803093 17630 net.cpp:2577] conv3 -> conv3
I0403 00:11:09.871028 17630 net.cpp:2299] Setting up conv3
I0403 00:11:09.871068 17630 net.cpp:2306] Top shape: 50 384 13 13 (3244800)
I0403 00:11:09.871073 17630 net.cpp:2314] Memory required for data: 705522800
I0403 00:11:09.871078 17630 net.cpp:2321] line: 2321
I0403 00:11:09.871084 17630 net.cpp:2328] line: 2328param_id:0 layer_id:10
I0403 00:11:09.871088 17630 net.cpp:2331] line: 2331
I0403 00:11:09.871093 17630 net.cpp:2328] line: 2328param_id:1 layer_id:10
I0403 00:11:09.871096 17630 net.cpp:2331] line: 2331
I0403 00:11:09.871100 17630 net.cpp:2333] line: 2333
I0403 00:11:09.871115 17630 net.cpp:2337] line: 2337
I0403 00:11:09.871121 17630 layer_factory.hpp:77] Creating layer relu3
I0403 00:11:09.871155 17630 net.cpp:2261] Creating Layer relu3
I0403 00:11:09.871162 17630 net.cpp:2603] relu3 <- conv3
I0403 00:11:09.871173 17630 net.cpp:2564] relu3 -> conv3 (in-place)
I0403 00:11:09.871186 17630 net.cpp:2299] Setting up relu3
I0403 00:11:09.871193 17630 net.cpp:2306] Top shape: 50 384 13 13 (3244800)
I0403 00:11:09.871198 17630 net.cpp:2314] Memory required for data: 731481200
I0403 00:11:09.871202 17630 net.cpp:2321] line: 2321
I0403 00:11:09.871206 17630 net.cpp:2333] line: 2333
I0403 00:11:09.871210 17630 net.cpp:2337] line: 2337
I0403 00:11:09.871214 17630 layer_factory.hpp:77] Creating layer conv4
I0403 00:11:09.871270 17630 net.cpp:2261] Creating Layer conv4
I0403 00:11:09.871276 17630 net.cpp:2603] conv4 <- conv3
I0403 00:11:09.871286 17630 net.cpp:2577] conv4 -> conv4
I0403 00:11:09.922708 17630 net.cpp:2299] Setting up conv4
I0403 00:11:09.922749 17630 net.cpp:2306] Top shape: 50 384 13 13 (3244800)
I0403 00:11:09.922755 17630 net.cpp:2314] Memory required for data: 757439600
I0403 00:11:09.922760 17630 net.cpp:2321] line: 2321
I0403 00:11:09.922766 17630 net.cpp:2328] line: 2328param_id:0 layer_id:12
I0403 00:11:09.922770 17630 net.cpp:2331] line: 2331
I0403 00:11:09.922775 17630 net.cpp:2328] line: 2328param_id:1 layer_id:12
I0403 00:11:09.922778 17630 net.cpp:2331] line: 2331
I0403 00:11:09.922782 17630 net.cpp:2333] line: 2333
I0403 00:11:09.922791 17630 net.cpp:2337] line: 2337
I0403 00:11:09.922798 17630 layer_factory.hpp:77] Creating layer relu4
I0403 00:11:09.922823 17630 net.cpp:2261] Creating Layer relu4
I0403 00:11:09.922830 17630 net.cpp:2603] relu4 <- conv4
I0403 00:11:09.922843 17630 net.cpp:2564] relu4 -> conv4 (in-place)
I0403 00:11:09.923046 17630 net.cpp:2299] Setting up relu4
I0403 00:11:09.923058 17630 net.cpp:2306] Top shape: 50 384 13 13 (3244800)
I0403 00:11:09.923063 17630 net.cpp:2314] Memory required for data: 783398000
I0403 00:11:09.923068 17630 net.cpp:2321] line: 2321
I0403 00:11:09.923072 17630 net.cpp:2333] line: 2333
I0403 00:11:09.923076 17630 net.cpp:2337] line: 2337
I0403 00:11:09.923081 17630 layer_factory.hpp:77] Creating layer conv5
I0403 00:11:09.923141 17630 net.cpp:2261] Creating Layer conv5
I0403 00:11:09.923151 17630 net.cpp:2603] conv5 <- conv4
I0403 00:11:09.923200 17630 net.cpp:2577] conv5 -> conv5
I0403 00:11:09.957535 17630 net.cpp:2299] Setting up conv5
I0403 00:11:09.957572 17630 net.cpp:2306] Top shape: 50 256 13 13 (2163200)
I0403 00:11:09.957578 17630 net.cpp:2314] Memory required for data: 800703600
I0403 00:11:09.957583 17630 net.cpp:2321] line: 2321
I0403 00:11:09.957589 17630 net.cpp:2328] line: 2328param_id:0 layer_id:14
I0403 00:11:09.957593 17630 net.cpp:2331] line: 2331
I0403 00:11:09.957597 17630 net.cpp:2328] line: 2328param_id:1 layer_id:14
I0403 00:11:09.957602 17630 net.cpp:2331] line: 2331
I0403 00:11:09.957605 17630 net.cpp:2333] line: 2333
I0403 00:11:09.957623 17630 net.cpp:2337] line: 2337
I0403 00:11:09.957628 17630 layer_factory.hpp:77] Creating layer relu5
I0403 00:11:09.957654 17630 net.cpp:2261] Creating Layer relu5
I0403 00:11:09.957661 17630 net.cpp:2603] relu5 <- conv5
I0403 00:11:09.957671 17630 net.cpp:2564] relu5 -> conv5 (in-place)
I0403 00:11:09.957685 17630 net.cpp:2299] Setting up relu5
I0403 00:11:09.957691 17630 net.cpp:2306] Top shape: 50 256 13 13 (2163200)
I0403 00:11:09.957696 17630 net.cpp:2314] Memory required for data: 818009200
I0403 00:11:09.957700 17630 net.cpp:2321] line: 2321
I0403 00:11:09.957705 17630 net.cpp:2333] line: 2333
I0403 00:11:09.957708 17630 net.cpp:2337] line: 2337
I0403 00:11:09.957713 17630 layer_factory.hpp:77] Creating layer pool5
I0403 00:11:09.957741 17630 net.cpp:2261] Creating Layer pool5
I0403 00:11:09.957747 17630 net.cpp:2603] pool5 <- conv5
I0403 00:11:09.957756 17630 net.cpp:2577] pool5 -> pool5
I0403 00:11:09.957772 17630 net.cpp:2299] Setting up pool5
I0403 00:11:09.957778 17630 net.cpp:2306] Top shape: 50 256 6 6 (460800)
I0403 00:11:09.957782 17630 net.cpp:2314] Memory required for data: 821695600
I0403 00:11:09.957787 17630 net.cpp:2321] line: 2321
I0403 00:11:09.957792 17630 net.cpp:2333] line: 2333
I0403 00:11:09.957795 17630 net.cpp:2337] line: 2337
I0403 00:11:09.957799 17630 layer_factory.hpp:77] Creating layer fc6
I0403 00:11:09.957886 17630 net.cpp:2261] Creating Layer fc6
I0403 00:11:09.957895 17630 net.cpp:2603] fc6 <- pool5
I0403 00:11:09.957902 17630 net.cpp:2577] fc6 -> fc6
I0403 00:11:12.869369 17630 net.cpp:2299] Setting up fc6
I0403 00:11:12.869410 17630 net.cpp:2306] Top shape: 50 4096 (204800)
I0403 00:11:12.869415 17630 net.cpp:2314] Memory required for data: 823334000
I0403 00:11:12.869419 17630 net.cpp:2321] line: 2321
I0403 00:11:12.869426 17630 net.cpp:2328] line: 2328param_id:0 layer_id:17
I0403 00:11:12.869431 17630 net.cpp:2331] line: 2331
I0403 00:11:12.869433 17630 net.cpp:2328] line: 2328param_id:1 layer_id:17
I0403 00:11:12.869437 17630 net.cpp:2331] line: 2331
I0403 00:11:12.869441 17630 net.cpp:2333] line: 2333
I0403 00:11:12.869452 17630 net.cpp:2337] line: 2337
I0403 00:11:12.869457 17630 layer_factory.hpp:77] Creating layer relu6
I0403 00:11:12.869485 17630 net.cpp:2261] Creating Layer relu6
I0403 00:11:12.869493 17630 net.cpp:2603] relu6 <- fc6
I0403 00:11:12.869503 17630 net.cpp:2564] relu6 -> fc6 (in-place)
I0403 00:11:12.869516 17630 net.cpp:2299] Setting up relu6
I0403 00:11:12.869524 17630 net.cpp:2306] Top shape: 50 4096 (204800)
I0403 00:11:12.869527 17630 net.cpp:2314] Memory required for data: 824972400
I0403 00:11:12.869532 17630 net.cpp:2321] line: 2321
I0403 00:11:12.869536 17630 net.cpp:2333] line: 2333
I0403 00:11:12.869540 17630 net.cpp:2337] line: 2337
I0403 00:11:12.869544 17630 layer_factory.hpp:77] Creating layer drop6
I0403 00:11:12.869566 17630 net.cpp:2261] Creating Layer drop6
I0403 00:11:12.869572 17630 net.cpp:2603] drop6 <- fc6
I0403 00:11:12.869578 17630 net.cpp:2564] drop6 -> fc6 (in-place)
I0403 00:11:12.869593 17630 net.cpp:2299] Setting up drop6
I0403 00:11:12.869601 17630 net.cpp:2306] Top shape: 50 4096 (204800)
I0403 00:11:12.869604 17630 net.cpp:2314] Memory required for data: 826610800
I0403 00:11:12.869608 17630 net.cpp:2321] line: 2321
I0403 00:11:12.869612 17630 net.cpp:2333] line: 2333
I0403 00:11:12.869616 17630 net.cpp:2337] line: 2337
I0403 00:11:12.869626 17630 layer_factory.hpp:77] Creating layer fc7
I0403 00:11:12.869729 17630 net.cpp:2261] Creating Layer fc7
I0403 00:11:12.869735 17630 net.cpp:2603] fc7 <- fc6
I0403 00:11:12.869745 17630 net.cpp:2577] fc7 -> fc7
I0403 00:11:14.142546 17630 net.cpp:2299] Setting up fc7
I0403 00:11:14.142587 17630 net.cpp:2306] Top shape: 50 4096 (204800)
I0403 00:11:14.142593 17630 net.cpp:2314] Memory required for data: 828249200
I0403 00:11:14.142597 17630 net.cpp:2321] line: 2321
I0403 00:11:14.142604 17630 net.cpp:2328] line: 2328param_id:0 layer_id:20
I0403 00:11:14.142608 17630 net.cpp:2331] line: 2331
I0403 00:11:14.142612 17630 net.cpp:2328] line: 2328param_id:1 layer_id:20
I0403 00:11:14.142622 17630 net.cpp:2331] line: 2331
I0403 00:11:14.142627 17630 net.cpp:2333] line: 2333
I0403 00:11:14.142637 17630 net.cpp:2337] line: 2337
I0403 00:11:14.142642 17630 layer_factory.hpp:77] Creating layer relu7
I0403 00:11:14.142673 17630 net.cpp:2261] Creating Layer relu7
I0403 00:11:14.142681 17630 net.cpp:2603] relu7 <- fc7
I0403 00:11:14.142694 17630 net.cpp:2564] relu7 -> fc7 (in-place)
I0403 00:11:14.142709 17630 net.cpp:2299] Setting up relu7
I0403 00:11:14.142716 17630 net.cpp:2306] Top shape: 50 4096 (204800)
I0403 00:11:14.142721 17630 net.cpp:2314] Memory required for data: 829887600
I0403 00:11:14.142725 17630 net.cpp:2321] line: 2321
I0403 00:11:14.142730 17630 net.cpp:2333] line: 2333
I0403 00:11:14.142735 17630 net.cpp:2337] line: 2337
I0403 00:11:14.142738 17630 layer_factory.hpp:77] Creating layer drop7
I0403 00:11:14.142758 17630 net.cpp:2261] Creating Layer drop7
I0403 00:11:14.142771 17630 net.cpp:2603] drop7 <- fc7
I0403 00:11:14.142779 17630 net.cpp:2564] drop7 -> fc7 (in-place)
I0403 00:11:14.142788 17630 net.cpp:2299] Setting up drop7
I0403 00:11:14.142796 17630 net.cpp:2306] Top shape: 50 4096 (204800)
I0403 00:11:14.142801 17630 net.cpp:2314] Memory required for data: 831526000
I0403 00:11:14.142804 17630 net.cpp:2321] line: 2321
I0403 00:11:14.142808 17630 net.cpp:2333] line: 2333
I0403 00:11:14.142814 17630 net.cpp:2337] line: 2337
I0403 00:11:14.142818 17630 layer_factory.hpp:77] Creating layer fc8
I0403 00:11:14.142894 17630 net.cpp:2261] Creating Layer fc8
I0403 00:11:14.142901 17630 net.cpp:2603] fc8 <- fc7
I0403 00:11:14.142910 17630 net.cpp:2577] fc8 -> fc8
I0403 00:11:14.452101 17630 net.cpp:2299] Setting up fc8
I0403 00:11:14.452141 17630 net.cpp:2306] Top shape: 50 1000 (50000)
I0403 00:11:14.452147 17630 net.cpp:2314] Memory required for data: 831926000
I0403 00:11:14.452152 17630 net.cpp:2321] line: 2321
I0403 00:11:14.452159 17630 net.cpp:2328] line: 2328param_id:0 layer_id:23
I0403 00:11:14.452163 17630 net.cpp:2331] line: 2331
I0403 00:11:14.452167 17630 net.cpp:2328] line: 2328param_id:1 layer_id:23
I0403 00:11:14.452172 17630 net.cpp:2331] line: 2331
I0403 00:11:14.452175 17630 net.cpp:2333] line: 2333
I0403 00:11:14.452185 17630 net.cpp:2337] line: 2337
I0403 00:11:14.452193 17630 layer_factory.hpp:77] Creating layer fc8_fc8_0_split
I0403 00:11:14.452221 17630 net.cpp:2261] Creating Layer fc8_fc8_0_split
I0403 00:11:14.452229 17630 net.cpp:2603] fc8_fc8_0_split <- fc8
I0403 00:11:14.452249 17630 net.cpp:2577] fc8_fc8_0_split -> fc8_fc8_0_split_0
I0403 00:11:14.452263 17630 net.cpp:2577] fc8_fc8_0_split -> fc8_fc8_0_split_1
I0403 00:11:14.452272 17630 net.cpp:2577] fc8_fc8_0_split -> fc8_fc8_0_split_2
I0403 00:11:14.452282 17630 net.cpp:2299] Setting up fc8_fc8_0_split
I0403 00:11:14.452298 17630 net.cpp:2306] Top shape: 50 1000 (50000)
I0403 00:11:14.452304 17630 net.cpp:2306] Top shape: 50 1000 (50000)
I0403 00:11:14.452311 17630 net.cpp:2306] Top shape: 50 1000 (50000)
I0403 00:11:14.452314 17630 net.cpp:2314] Memory required for data: 833126000
I0403 00:11:14.452319 17630 net.cpp:2321] line: 2321
I0403 00:11:14.452323 17630 net.cpp:2333] line: 2333
I0403 00:11:14.452327 17630 net.cpp:2337] line: 2337
I0403 00:11:14.452332 17630 layer_factory.hpp:77] Creating layer accuracy_1
I0403 00:11:14.452352 17630 net.cpp:2261] Creating Layer accuracy_1
I0403 00:11:14.452358 17630 net.cpp:2603] accuracy_1 <- fc8_fc8_0_split_0
…
